models/bestf1_noDIA_feat_new_model_gpu_nonorm_robustscaler_v6.pt (torch, 583922 bytes, 36 tensors)

conv1.weight f4 [1, 1, 7, 7]
0	0xbdb8f731	-0.09031523
1	0xbce24840	-0.027622342
2	0x3dd23285	0.10263542
3	0xbe2abd0c	-0.16673678
4	0xbd19897c	-0.03748463
5	0xbd8d2ba9	-0.06893093
6	0x3c92c788	0.01791741
7	0xbdc15045	-0.09439138
8	0xbb0b69d0	-0.0021272786
9	0xbea6a932	-0.3255096
10	0x3d5fe6e5	0.054663558
11	0x3e16081b	0.1465153
12	0x3e15f0b2	0.14642599
13	0xbd93a66c	-0.07209477
14	0x3ca1b12b	0.0197378
15	0xbdabd2d8	-0.08389825
16	0xbe0ce8bf	-0.1376066
17	0x3c800fff	0.015632628
18	0xbebdd3cb	-0.37075648
19	0xbdbb6422	-0.09149958
20	0xbe807d5b	-0.2509564
21	0xbe3e9835	-0.1861275
22	0xbcdaeecd	-0.026725197
23	0xbd5822d9	-0.05276761
24	0x3dd885ef	0.10572421
25	0xbe4e5b3d	-0.20151992
26	0xbec04114	-0.3754965
27	0x3d5845a1	0.05280078
28	0xbde99104	-0.11404613
29	0xbdd07b4b	-0.10179766
30	0xbe1f73ed	-0.15571566
31	0xbed6238f	-0.41824004
32	0x3dfc8e70	0.12331855
33	0x3dee2bfa	0.116294816
34	0xbd882936	-0.06648485
35	0xbe3dc360	-0.18531561
36	0xbe15c74a	-0.14626804
37	0xbdf908f4	-0.12159911
38	0xbdb130d6	-0.08651893
39	0x3e27734c	0.16352576
40	0x3da8b562	0.08237721
41	0x3c133f99	0.008987331
42	0xbe0dcaad	-0.13846846
43	0xbe72408f	-0.2365744
44	0x3b088e53	0.0020836785
45	0xbd32e8fb	-0.04367922
46	0xbd0d2127	-0.034455445
47	0x3d6d1e19	0.05789003
48	0x3de38d9c	0.11110994

conv2.weight f4 [16, 1, 3, 3]
0	0xbc04e2ab	-0.0081106825
1	0xbc22600b	-0.009910594
2	0xbc0774eb	-0.0082676215
3	0xbbda3234	-0.0066588167
4	0xbbb121c1	-0.005405635
5	0xbc07b501	-0.008282901
6	0xbc2d65a4	-0.010583315
7	0xbc1346af	-0.00898902
8	0xbbb1e9d5	-0.0054294863
9	0xbe57fc0b	-0.2109224
10	0x3dcc4b09	0.09975249
11	0xbe1ec3f4	-0.15504438
12	0xbdf3a7ca	-0.118972376
13	0xbe132368	-0.14368975
14	0xbcc0ddc2	-0.023543242
15	0xbe451a03	-0.19248204
16	0x3dd5dad4	0.10442129
17	0xbe12bd3e	-0.14330003
18	0xbce3525d	-0.027749235
19	0xbd0538d5	-0.032524902
20	0xbd00adb8	-0.03141567
21	0xbcf313e0	-0.029672563
22	0xbd09f67d	-0.033682335
23	0xbcd017b8	-0.025401935
24	0xbd07945f	-0.033100482
25	0xbcce577b	-0.025188198
26	0xbcfdacd2	-0.030966196
27	0x3d4bb26c	0.049730703
28	0x3d918321	0.07105089
29	0x3d16213a	0.03665278
30	0xbe3b4352	-0.182874
31	0xbd8305e2	-0.063976064
32	0xbe0b705e	-0.13617083
33	0xbdf87ddb	-0.1213338
34	0xbdc9ce6d	-0.09853826
35	0xbd2ca21f	-0.0421468
36	0x3d0bd864	0.034141913
37	0xbd63e760	-0.05564058
38	0xbc228d87	-0.009921438
39	0xbd6ef0ef	-0.05833524
40	0xbe2da340	-0.16956806
41	0xbdfb5790	-0.122725606
42	0x3dab5abe	0.08366917
43	0xbe2d8b24	-0.16947609
44	0xbdfd7216	-0.12375276
45	0xbddc3a68	-0.107533276
46	0xbd2f71dc	-0.042833194
47	0xbcf4c7f1	-0.029880496
48	0xbde3bb7e	-0.11119746
49	0xbdbd4770	-0.09242141
50	0xbd905828	-0.070480645
51	0xbd846f5e	-0.06466554
52	0xbc3ce0b4	-0.011528183
53	0xbdbdf2a3	-0.09274795
54	0x3dab58e3	0.08366563
55	0xbe3dd8c1	-0.18539716
56	0xbcccacb1	-0.02498469
57	0xbda07b41	-0.07836009
58	0xbe202180	-0.15637779
59	0xbe1406cd	-0.1445572
60	0x3d5d12f2	0.053973146
61	0xbd3eadd8	-0.04655251
62	0xbe0cbb98	-0.13743436
63	0xbd9196c2	-0.07108833
64	0xbcfba254	-0.030717053
65	0xbd204994	-0.03913267
66	0xbd98e988	-0.074664176
67	0xbd391a6b	-0.04519121
68	0xbd8a3e30	-0.067501426
69	0xbd8949cf	-0.06703531
70	0xbd1d182a	-0.038353123
71	0xbd7201e6	-0.05908384
72	0xbe2f70bc	-0.17132849
73	0xbdb12dca	-0.08651312
74	0xbe6b6e34	-0.22991258
75	0xbdb4f63a	-0.088360265
76	0xbe3b9d5d	-0.18321748
77	0xbe1dd303	-0.15412526
78	0x3dc8de5f	0.09808039
79	0xbd94aba6	-0.07259302
80	0x3df877da	0.12132235
81	0x3d094d06	0.03352072
82	0xbdd3e263	-0.10345914
83	0x3de028f5	0.10945312
84	0xbd87f9e3	-0.06639459
85	0xbd08226f	-0.033235963
86	0xbc57413f	-0.0131381145
87	0xbd65e56f	-0.056127008
88	0xbdf5ace0	-0.11995864
89	0xbe36b76f	-0.17843412
90	0xbe0c4ace	-0.1370041
91	0xbe0d10e4	-0.13775975
92	0x3ce8276e	0.028339114
93	0xbc4c9d9a	-0.012488747
94	0xbe63954c	-0.22224921
95	0x3d55ea2b	0.052225273
96	0xbd813e9b	-0.06310769
97	0xbe8fb15f	-0.2806501
98	0x3dac4ed4	0.08413473
99	0xa9b41c03	-7.998465e-14
100	0xaccd39d8	-5.8328724e-12
101	0xacda13a4	-6.198113e-12
102	0xaa34df99	-1.6064788e-13
103	0xab0f7ba8	-5.0975413e-13
104	0xaba3066b	-1.1583628e-12
105	0xaaa4ae6f	-2.925329e-13
106	0xaaf0c072	-4.27661e-13
107	0xaba542f6	-1.174254e-12
108	0xbdb3e5e1	-0.0878408
109	0xbe3407e3	-0.17581134
110	0x3dc9b5eb	0.09849151
111	0xbd23e8ab	-0.04001681
112	0xbe2450e4	-0.16046482
113	0x3d82446a	0.06360705
114	0xbd954af2	-0.07289685
115	0xbe80e17a	-0.25172025
116	0x3cbfbe78	0.023406252
117	0xbda903c9	-0.08252675
118	0xbdcbb3bb	-0.0994639
119	0xbd71d9c6	-0.059045576
120	0x3d937c6f	0.07201468
121	0xbda8e893	-0.08247485
122	0xbe39cdf7	-0.18144976
123	0x3dc55f4c	0.09637317
124	0xbc35669c	-0.011071827
125	0xbe27f0c0	-0.16400433
126	0xbb83cb2c	-0.0040220227
127	0x3da9cde8	0.082912266
128	0xbc68443d	-0.0141764255
129	0xbe23a19d	-0.1597962
130	0xbc61674f	-0.013757541
131	0xbd8c6778	-0.068556726
132	0xbe570e32	-0.21001509
133	0xbe5701a3	-0.20996718
134	0xbe3450d1	-0.17608954
135	0xbccacf7e	-0.024757143
136	0x3cc48d64	0.023993202
137	0xbb9bce82	-0.0047548423
138	0x3c110242	0.008850636
139	0xbcbacc66	-0.022802543
140	0xbdd49dd5	-0.103816666
141	0xbdb20a9c	-0.0869343
142	0x3d05f2ca	0.032702245
143	0x3e009430	0.12556529

conv2.bias f4 [16]
0	0xb95cf9fc	-0.00021073961
1	0xbde0d23a	-0.109775975
2	0xb64f6874	-3.0906203e-06
3	0x3d6980b3	0.057007503
4	0xbd1343b0	-0.035953224
5	0x3f090f97	0.53539413
6	0xbcee3442	-0.029077653
7	0x3eaf151f	0.34195802
8	0xbe1b9f44	-0.15197474
9	0xbc3c0625	-0.011476074
10	0xbde5aaa5	-0.112141885
11	0xac886140	-3.8761494e-12
12	0xbe101411	-0.14070155
13	0xbc97f0bf	-0.018547414
14	0x3e212b6c	0.1573922
15	0xbe87663e	-0.26445192

conv3.weight f4 [32, 16, 3, 3]
0	0x38905c0d	6.883601e-05
1	0x360a455b	2.0603973e-06
2	0xb85c351e	-5.2501557e-05
3	0x3886c388	6.4260385e-05
4	0xb5f76e80	-1.8435094e-06
5	0xb8832b99	-6.2546875e-05
6	0x38ba4302	8.881652e-05
7	0xb8348458	-4.30386e-05
8	0xb8d80087	-0.00010299781
9	0x3d8dcc3f	0.069237225
10	0xbd634df4	-0.055494264
11	0xbd901761	-0.07035709
12	0xbd97a426	-0.07404356
13	0xbd8c5842	-0.06852771
14	0xbdb94dd6	-0.09048049
15	0x3d2bc950	0.041940033
16	0x3bc453b7	0.005991425
17	0xbbe783e5	-0.0070652836
18	0x39ec20d1	0.00045037878
19	0xba1ee90e	-0.00060619495
20	0xb9100fb4	-0.0001373876
21	0xb9ef6962	-0.0004566415
22	0xb952720d	-0.00020069648
23	0xb9607172	-0.00021404566
24	0xba1a1c0a	-0.0005878812
25	0xb9a2f5a6	-0.0003108207
26	0xb7b5c234	-2.1667314e-05
27	0xbc869aa9	-0.01643117
28	0xbc32a1e1	-0.010902853
29	0xbd7f2f34	-0.062300876
30	0xbd165617	-0.036703195
31	0xbc7d97b6	-0.015478065
32	0xbd6d8f37	-0.05799791
33	0xbcc4bdf5	-0.02401636
34	0xbd2daead	-0.042402912
35	0xbdcdb829	-0.100448914
36	0xbbff2cba	-0.0077873142
37	0xbd140c25	-0.036144394
38	0xbd911a5e	-0.07085107
39	0xbd3de680	-0.0463624
40	0xbd69f191	-0.05711514
41	0xbd22a53f	-0.039708372
42	0x3d059099	0.032608602
43	0xbc3552eb	-0.011067132
44	0x3b0c12a5	0.0021373418
45	0xbc9064c8	-0.017626181
46	0xbdd3268c	-0.103100866
47	0xbdca9e39	-0.0989346
48	0xbd90a8f7	-0.070634775
49	0xbdc052bd	-0.09390781
50	0xbd979bc2	-0.07402755
51	0xbd91c51c	-0.07117674
52	0xbd6585e8	-0.056035906
53	0xbd82e565	-0.0639141
54	0xbcbe1c8a	-0.023206968
55	0xbd37c0b8	-0.044861525
56	0x3b1124de	0.0022147219
57	0xbdb54a1a	-0.088520244
58	0xbcd2b82e	-0.02572259
59	0xbd0012af	-0.031267818
60	0xbdac3ad6	-0.084096596
61	0xbca71aac	-0.02039846
62	0xbd5d0a64	-0.053964987
63	0xbd06d74f	-0.032920178
64	0xbd233158	-0.03984198
65	0xbda40f70	-0.08010757
66	0xbd83f10a	-0.06442459
67	0xbd9c6c6c	-0.07637867
68	0xbdf288f5	-0.11842529
69	0xbd61165f	-0.054952975
70	0xbca76c2a	-0.020437319
71	0xbdd71c8c	-0.10503492
72	0xbc76905d	-0.015049067
73	0x3d0347dc	0.032050952
74	0xbd8de9b0	-0.06929338
75	0xbd1d18a1	-0.038353566
76	0xbd295be7	-0.04134741
77	0xbde26178	-0.11053747
78	0xbe164068	-0.14673007
79	0xbc441863	-0.011968705
80	0xbdb34edb	-0.08755275
81	0xbc3a95ec	-0.011388283
82	0x3d8a6cee	0.06759058
83	0xbbe91e59	-0.0071142134
84	0x3bd881dc	0.0066072773
85	0x3d834378	0.06409353
86	0x3c1c4086	0.009536868
87	0x3d82b3bd	0.063819386
88	0xbd16b84d	-0.036796857
89	0xbd398b10	-0.045298636
90	0xbd65aea7	-0.056074765
91	0xbcede5e1	-0.029040279
92	0xbcb7fe23	-0.022460049
93	0xbcba7232	-0.02275953
94	0xbdc651e5	-0.09683589
95	0xbd27f52b	-0.041005295
96	0xbd492e1b	-0.049116235
97	0xbd02d2a4	-0.031939164
98	0xbd780bc2	-0.060558088
99	0x8000190f	-8.99e-42
100	0x00001b72	9.846e-42
101	0x0b657d13	4.419789e-32
102	0x00001da9	1.064e-41
103	0x00168cc5	2.07088e-39
104	0x80024f51	-2.12124e-40
105	0x005e75cc	8.674794e-39
106	0x800712e0	-6.4962e-40
107	0x820002e1	-9.404781e-38
108	0x3c108eac	0.008823078
109	0x3dbc179c	0.09184191
110	0xbcf5e5dc	-0.030016832
111	0xbd9782ad	-0.07397971
112	0xbe0a5721	-0.135098
113	0xbccea79d	-0.025226409
114	0xbdc137a6	-0.09434442
115	0xbdc5299a	-0.096270755
116	0x3c2d1c99	0.0105659
117	0xbd59e95e	-0.053201072
118	0xbd993085	-0.074799575
119	0xbe2ca0f6	-0.16858277
120	0xbd18bca4	-0.037289277
121	0xbd07f179	-0.03318927
122	0xbdb2d82f	-0.0873264
123	0xbdc94349	-0.09827287
124	0xbe0ed015	-0.13946564
125	0xbc46d4ed	-0.012135726
126	0xbc22bff2	-0.009933459
127	0xbcf3ac21	-0.029745163
128	0xbd51b87b	-0.051201325
129	0xbd500548	-0.050786287
130	0xbd8d4290	-0.068974614
131	0xbce1399b	-0.027493289
132	0xbd2063e8	-0.039157778
133	0xbd7cc3a0	-0.06171
134	0xbdd71084	-0.10501197
135	0xbd1a0596	-0.037602983
136	0x3e8df6d8	0.2772739
137	0xbc114522	-0.00886658
138	0x3c1df696	0.00964131
139	0xbd95ff78	-0.073241174
140	0x3d1e0e0f	0.038587626
141	0x3e05b5b7	0.130576
142	0x3bb88183	0.0056306734
143	0x3d39b3da	0.045337535
144	0xb88724b5	-6.444139e-05
145	0x3892cb30	6.999669e-05
146	0xb6c19adf	-5.7698776e-06
147	0x34fa9792	4.667641e-07
148	0x38034c22	3.1303738e-05
149	0xb4496664	-1.8756833e-07
150	0x37aba81b	2.0463069e-05
151	0x351a825b	5.755916e-07
152	0x38b212b8	8.491188e-05
153	0xbc3d5759	-0.01155647
154	0xbcbb4d49	-0.022864
155	0x3d3598a6	0.04433503
156	0xbd71fffb	-0.059082013
157	0xbd366a93	-0.04453523
158	0xbc82355c	-0.015894584
159	0x3d289f98	0.041167825
160	0x3bc17d05	0.005904796
161	0xbd4ee4fc	-0.050511345
162	0x3941aaa2	0.0001846948
163	0x39e7784d	0.00044149384
164	0x36c5a3d3	5.890129e-06
165	0x3987a5e8	0.00025872816
166	0x35bd76a8	1.4116131e-06
167	0x388c6dc9	6.696169e-05
168	0x3677a83b	3.6903791e-06
169	0x37243cab	9.789287e-06
170	0x37238e67	9.748713e-06
171	0xbd5502fd	-0.052004803
172	0x39b45ea7	0.00034402797
173	0xbc70f662	-0.01470718
174	0xbdaa8ea8	-0.08327991
175	0x3d737e42	0.05944658
176	0x3a6f8ca3	0.0009138083
177	0x3d8146f7	0.063123636
178	0xbd124e64	-0.03571929
179	0xbd6bde90	-0.0575853
180	0xbc82f083	-0.015983826
181	0x3df1e3dd	0.118110396
182	0xbc81cc36	-0.015844446
183	0xbd572f11	-0.05253512
184	0x3b51e333	0.003202629
185	0xbc9f2f8e	-0.019431856
186	0x3d7469ea	0.05967132
187	0xbddc1ec9	-0.10748059
188	0xbb55525a	-0.0032550306
189	0x3ccbb0a6	0.024864506
190	0xbca49d45	-0.020094523
191	0xbc777cff	-0.015105485
192	0x3c586e57	0.013209901
193	0xbd01ecf4	-0.031720117
194	0xbc61fc9e	-0.013793139
195	0x3b8b2c45	0.0042472207
196	0xbb3c6c27	-0.0028750987
197	0x3b8132be	0.0039428165
198	0xbcc64e14	-0.024207152
199	0xbb4b2d3c	-0.0031002304
200	0x3d008bf4	0.03138347
201	0xbd67bf31	-0.05657882
202	0x3e122a43	0.14273934
203	0x3d6d6dad	0.057965923
204	0x3cc75499	0.024332331
205	0xbe04e25b	-0.12976973
206	0xba1e400c	-0.00060367654
207	0xbd45b275	-0.048265893
208	0xbcae9517	-0.021311326
209	0x3ca610a5	0.020271609
210	0x3d168304	0.03674604
211	0xbd6e6512	-0.058201857
212	0x3b19d36c	0.0023471965
213	0x3b024bd8	0.0019881632
214	0xbd0631ed	-0.032762457
215	0x3d0e1657	0.034689274
216	0xbd263aa3	-0.040583264
217	0x3d942ef5	0.07235519
218	0xbd7b3530	-0.06133002
219	0xba1d40bf	-0.00059987226
220	0xbce8237b	-0.02833723
221	0xbc6de92e	-0.014520926
222	0x3d1aadfd	0.037763584
223	0x3c8ef634	0.017451383
224	0xbe0439b1	-0.12912633
225	0x3b68b336	0.0035507209
226	0xbda717f1	-0.08158863
227	0x3d40a95c	0.047036514
228	0x3d2e8419	0.042606447
229	0x3d226602	0.039648063
230	0xbd99b3c6	-0.07504992
231	0x3d4b51db	0.04963861
232	0xbb244675	-0.002506641
233	0xbd9589c5	-0.07301668
234	0xbd494817	-0.049141016
235	0xbd85a385	-0.065253295
236	0xbd0af5d5	-0.03392585
237	0xbd4b6a25	-0.049661774
238	0xbdcf3952	-0.10118355
239	0xbdf1cca3	-0.118066095
240	0xbd999cf9	-0.07500643
241	0xbdadea8c	-0.08492002
242	0xbd846166	-0.0646389
243	0x00001cac	1.0286e-41
244	0x00001bba	9.946e-42
245	0x80001c03	-1.0049e-41
246	0x80001b64	-9.826e-42
247	0x00001bdb	9.993e-42
248	0x00001c7d	1.022e-41
249	0x80001b5e	-9.817e-42
250	0x80001b9a	-9.902e-42
251	0x80001cea	-1.0372e-41
252	0xbc790e90	-0.015201226
253	0xbca7a104	-0.02046252
254	0xbdc9ba86	-0.0985003
255	0xbd81191a	-0.06303616

conv3.bias f4 [32]
0	0x3ecab28d	0.39589348
1	0xbd1ffb4d	-0.03905802
2	0xbe26d79b	-0.16293184
3	0xbd671fc5	-0.056426782
4	0xbddbe360	-0.10736728
5	0xbdfd99a2	-0.12382819
6	0xbdfc6514	-0.123239666
7	0xbde740b4	-0.11291638
8	0xbddb6a3b	-0.10713621
9	0xbebacdd8	-0.3648517
10	0xbe155c06	-0.14585885
11	0x3cb5979a	0.022167016
12	0xbe2a236c	-0.16615075
13	0xbdc85c0f	-0.09783184
14	0xbd85604e	-0.06512509
15	0xbd3e12a6	-0.046404503
16	0xbb9ec4d7	-0.0048452425
17	0xbf1a7158	-0.603292
18	0x3f113b4d	0.5673111
19	0xbd92c680	-0.07166767
20	0xbe440396	-0.19141993
21	0xbd6b5530	-0.057454288
22	0xbd8612ee	-0.06546579
23	0xbd98d37d	-0.07462213
24	0x3ea05a19	0.3131874
25	0xbd54b627	-0.051931527
26	0xbe386f36	-0.18011174
27	0xbdfed49e	-0.12442897
28	0xbe126941	-0.14297964
29	0x3e49f26c	0.19721383
30	0xbe133b5d	-0.14378114
31	0xbeac086f	-0.33600184

fc1.weight f4 [32, 1280]
0	0x3c938a47	0.018010272
1	0x3da1cbf8	0.07900232
2	0x3ba9c2e9	0.005180706
3	0x3c87aebd	0.016562814
4	0xbbbe02b1	-0.0057986607
5	0xbcb6c3ec	-0.02231022
6	0xbcea1024	-0.02857215
7	0xbd2c8159	-0.042115543
8	0xbd68c373	-0.05682702
9	0xbd2a1394	-0.041522577
10	0x3d720aa1	0.059092168
11	0x3bf30162	0.0074159363
12	0xbbfbcc5e	-0.0076842746
13	0xbd40d5ac	-0.047078773
14	0x3d9a9e23	0.075496934
15	0xbc272f6f	-0.01020418
16	0x3b92c54b	0.0044790856
17	0xba338de4	-0.00068494515
18	0xbceddc94	-0.029035844
19	0xbbb0804a	-0.005386387
20	0x3cbf833e	0.02337801
21	0xbd805579	-0.062663026
22	0x3dcb58cb	0.09929045
23	0x3d365a5c	0.044519767
24	0x3d4e092f	0.050301727
25	0x3d809fd3	0.06280484
26	0xbc536c26	-0.012904203
27	0xbd90717d	-0.07052896
28	0xbdde4bce	-0.10854302
29	0xbd288992	-0.041146822
30	0xbc3a924d	-0.01138742
31	0x3d851ab7	0.06499236
32	0x3d8df446	0.06931357
33	0xbc896bc0	-0.016775012
34	0x3c31ee0a	0.010859976
35	0x3d1b2b99	0.037883375
36	0xbd7c58fa	-0.061608292
37	0xbd7c47fa	-0.06159208
38	0x3bafadb1	0.005361282
39	0xbcfcf1cb	-0.030877015
40	0xbd490569	-0.049077425
41	0xbc89eb50	-0.016835839
42	0x3c45b9c3	0.012068215
43	0xbd3c8289	-0.046022926
44	0x3d844337	0.06458133
45	0x3dc65e4f	0.09685957
46	0xbd05ffb8	-0.032714576
47	0xbae0e16f	-0.0017157028
48	0xbd640768	-0.055671126
49	0x3ce6c8b9	0.028171884
50	0x3d7c1a37	0.061548438
51	0xbc566fe1	-0.013088197
52	0xbbb485ed	-0.0055091293
53	0x3d82a33e	0.06378792
54	0x3dc12a9b	0.094319545
55	0xbd3907f2	-0.045173593
56	0xbd502b71	-0.05082268
57	0xbca9395a	-0.02065723
58	0xbda6449d	-0.08118556
59	0xbd87fb3d	-0.06639717
60	0x3c76ca56	0.015062889
61	0x3d8196b1	0.0632757
62	0x3de9c1ee	0.11413942
63	0x3b2dbfa2	0.0026511927
64	0xbc061067	-0.008182622
65	0xbd31a79a	-0.043372728
66	0xbc350705	-0.011049037
67	0x3d82fa89	0.06395442
68	0x3cc03034	0.023460485
69	0xbd081762	-0.033225425
70	0x3de3b376	0.11118214
71	0x3d6043fe	0.054752342
72	0x3dcb6494	0.09931293
73	0x3d645319	0.05574331
74	0xbc614048	-0.013748236
75	0x3d4b5ed8	0.049650997
76	0x3c851e23	0.016249722
77	0xbbaf4984	-0.00534934
78	0xbc901906	-0.017590057
79	0x3c7918aa	0.015203634
80	0xbd268ec2	-0.04066349
81	0xbd037584	-0.032094494
82	0xbd2abeac	-0.041685745
83	0xbdcbc41e	-0.09949516
84	0x3d14d09f	0.03633177
85	0x3d533fa7	0.051574375
86	0x3cfc9530	0.030832857
87	0xbd14308e	-0.036179118
88	0x3d6a2e50	0.057173073
89	0x3cbde619	0.023181008
90	0x3c196290	0.009361878
91	0xbca8ff3f	-0.020629523
92	0xbda2fb03	-0.07958033
93	0x3cc15af0	0.023602933
94	0x3b0b16dd	0.0021223344
95	0xbbcb737b	-0.0062088347
96	0x3c01e179	0.007927292
97	0x3b82f9ba	0.003997055
98	0xbe160f0a	-0.14654174
99	0x3cb1b680	0.021693468
100	0x3cb81564	0.022471137
101	0xbdb2ac3f	-0.087242596
102	0xbcc0331f	-0.023461876
103	0xbd69475e	-0.056952827
104	0xb92b99df	-0.00016365152
105	0xbd7f49a6	-0.062326096
106	0xbc9f2354	-0.019426025
107	0xbdb66f8f	-0.08907997
108	0x3dd89673	0.10575571
109	0xbcb40d2d	-0.021978939
110	0xbcc26b3e	-0.023732778
111	0xbc661510	-0.014043108
112	0xbd27212f	-0.04080313
113	0xbd941c84	-0.072320014
114	0x3c97d5bd	0.018534536
115	0xbd9392bf	-0.07205724
116	0x3cf4a57a	0.029864062
117	0x3b06630e	0.0020505819
118	0x3d4f4ea8	0.05061212
119	0x3dd9c1a3	0.106326364
120	0x3d0647fd	0.032783497
121	0x3c96c20c	0.018403076
122	0x3dbba8c6	0.0916305
123	0x3cb3f91e	0.021969374
124	0x3d39761d	0.045278657
125	0x3a567065	0.00081802
126	0xbbeeb328	-0.0072845407
127	0xbcd12a6c	-0.025532924
128	0x3b16efe3	0.0023031167
129	0x3d41ba66	0.047296904
130	0x3d5ace5e	0.053419463
131	0xbd1bbb48	-0.038020402
132	0x3d9abb3b	0.07555243
133	0x3d604314	0.05475147
134	0x3c05b5e2	0.00816104
135	0x3c9823f6	0.018571835
136	0xbccd8c54	-0.025091328
137	0xbd475d4a	-0.04867295
138	0xbd3f48a3	-0.04670013
139	0x3c4ae852	0.012384491
140	0x3ceb6393	0.028734004
141	0x3b86e878	0.004117068
142	0x3c814db1	0.015784116
143	0x3d888ce7	0.066675
144	0xbc5bd9f7	-0.013418666
145	0xbccf4b76	-0.025304537
146	0xbce481cc	-0.027893923
147	0xbc58a971	-0.013223992
148	0xbd062bd9	-0.03275666
149	0xbd9b80e5	-0.07592944
150	0xbd2797c4	-0.04091622
151	0x3d8b5ca1	0.06804777
152	0x3d302e02	0.043012626
153	0x3d9ec58b	0.07752522
154	0x3a4db09f	0.0007846448
155	0xbc0ed867	-0.0087185865
156	0x3a8ceaff	0.0010751187
157	0x3d0264db	0.031834465
158	0x3bef8d28	0.0073105283
159	0xbd18a8b9	-0.03727028
160	0xbd0d67e0	-0.03452289
161	0xbd8bbff2	-0.0682372
162	0x3d1e77f9	0.038688634
163	0xbdd7b27e	-0.105320916
164	0x3d3a62e4	0.045504466
165	0x3b90afc2	0.004415483
166	0xbafa5508	-0.0019098828
167	0xbcde0822	-0.027103487
168	0x3e0401a0	0.12891245
169	0xbcbebda9	-0.023283796
170	0x3d86c9ce	0.0658146
171	0xbdd23bb5	-0.102652945
172	0x3dfc24d5	0.12311713
173	0xbc9ecae7	-0.01938386
174	0xbd56b642	-0.05241991
175	0xbc880bf1	-0.016607257
176	0xbd49f217	-0.04930314
177	0xbdd97e87	-0.10619836
178	0xbd0e99f1	-0.03481478
179	0xbbc52af5	-0.006017084
180	0x3b8a708e	0.0042248433
181	0xbd6691f7	-0.056291547
182	0xbb53c3af	-0.0032312681
183	0xbc106919	-0.00881412
184	0x3d628a8a	0.055307902
185	0x3c3f05ec	0.011659127
186	0xbd223b0e	-0.0396071
187	0xbaecb929	-0.0018060553
188	0x3d6c1035	0.057632644
189	0x3d537b93	0.05163152
190	0x3c88623c	0.016648404
191	0x3d781321	0.060565118
192	0xbb326a11	-0.0027223865
193	0x3db9c508	0.09070784
194	0xbcc2c91e	-0.02377754
195	0xbd66e70b	-0.056372683
196	0x3b1bdea4	0.0023783827
197	0x3e31702a	0.17327943
198	0xbc2206f9	-0.009889358
199	0x3d0a991f	0.033837434
200	0x3c9b56fb	0.018962374
201	0xbb33a38e	-0.0027410719
202	0xbaaa1d78	-0.0012978753
203	0x3d2befb4	0.041976646
204	0x3cc1c1f3	0.023652053
205	0xbd3eaaee	-0.04654973
206	0x3c782104	0.01514459
207	0x3d41c239	0.047304366
208	0x3cdf97f3	0.027294135
209	0xbd0c2984	-0.03421928
210	0x3d3e9e89	0.04653791
211	0xbd07db5a	-0.033168174
212	0xbcc19c1d	-0.02363401
213	0x3d03f2af	0.032213863
214	0x389f69fe	7.6014534e-05
215	0x3b9c5459	0.004770797
216	0x3c6d7b2e	0.0144947
217	0xbdcb27f4	-0.0991973
218	0xbd4f56f1	-0.050620023
219	0xbac0ae6e	-0.0014700422
220	0x3cc640d0	0.024200827
221	0xbcff9521	-0.03119904
222	0x3c802ab7	0.015645368
223	0x3cdc9390	0.026925832
224	0xbc984e62	-0.018592063
225	0x3a115ca9	0.00055451185
226	0xbcb46921	-0.022022786
227	0x3c0bff5b	0.008544768
228	0xbce7115f	-0.028206525
229	0xba74aff7	-0.0009334082
230	0xbc88ee37	-0.016715152
231	0x3d9f5778	0.07780355
232	0x3cb410e1	0.021980705
233	0x3c59ab94	0.013285536
234	0x3c63a15a	0.01389345
235	0xbb06e176	-0.0020581163
236	0xbd0e15b7	-0.034688678
237	0x3cb9dc94	0.022688188
238	0xbd22366c	-0.039602682
239	0xbb586ddf	-0.0033024473
240	0x3d0bd744	0.03414084
241	0x3d8dd0f9	0.06924624
242	0xbe05f7f6	-0.13082871
243	0xbc22da4a	-0.0099397395
244	0x3d56e82c	0.05246751
245	0x3c0569ee	0.008142931
246	0x3bf76960	0.0075504035
247	0xbcc3ed3b	-0.023916831
248	0x3c243c6c	0.010024171
249	0x3d96be51	0.07360519
250	0x3cb47aee	0.022031274
251	0xbd6b5152	-0.0574506
252	0xbd70eb39	-0.058818076
253	0x3d825d90	0.06365502
254	0xbc581926	-0.01318959
255	0xbd8a8b78	-0.06764883

fc1.bias f4 [32]
0	0xbe25b17d	-0.16180988
1	0x346ada1c	2.1872296e-07
2	0xbb63f619	-0.0034784137
3	0xbc6d5ed4	-0.014487941
4	0xbacabd44	-0.0015467783
5	0xba337539	-0.00068457756
6	0x3a7362d1	0.0009284439
7	0xbd7a399e	-0.061090104
8	0x3c589dab	0.013221185
9	0xbcd04317	-0.025422616
10	0xbc428475	-0.0118724005
11	0xbb0446d9	-0.002018383
12	0xba2b396c	-0.0006531689
13	0xbceee3d0	-0.029161364
14	0xbc9c90fc	-0.019112103
15	0xbd27d724	-0.04097666
16	0xbc9962e6	-0.018723916
17	0x3e9719d4	0.29511893
18	0x3d875992	0.06608881
19	0xbba3bd98	-0.0049969666
20	0xbcbeaaf9	-0.023274885
21	0xbc542d77	-0.012950293
22	0xbc10a2cb	-0.008827875
23	0xbd0f76bf	-0.035025354
24	0x3e2ff7e6	0.1718441
25	0xbc54513d	-0.012958822
26	0xbd1539a5	-0.036431927
27	0xbd1c7de6	-0.038206004
28	0xbd0efeb3	-0.03491087
29	0xbcd09ebd	-0.025466317
30	0xbadd2eb2	-0.0016874878
31	0x3d8ba535	0.0681862

fc2.weight f4 [16, 32]
0	0x3c7d197e	0.015447972
1	0x30e1ac90	1.641995e-09
2	0xbcc7eef5	-0.024405936
3	0xbb85353c	-0.004065184
4	0xbb0be79c	-0.0021347767
5	0x3b0b57b9	0.0021262004
6	0xbbd345b3	-0.006447518
7	0xbc99b5e9	-0.0187635
8	0xbc1200d5	-0.008911331
9	0x3b57ff0a	0.0032958412
10	0xb98a6be6	-0.00026401802
11	0xbca9ada8	-0.020712689
12	0x38cb0545	9.680776e-05
13	0xbc794344	-0.015213791
14	0x3d2abda6	0.04168477
15	0xbccd177a	-0.025035609
16	0xbab27da9	-0.0013617772
17	0x3c536fa9	0.01290504
18	0x3c582063	0.013191315
19	0x3d6f9544	0.05849196
20	0xbd1b1739	-0.037863944
21	0xbc1f3391	-0.009716884
22	0xbbab3297	-0.0052245366
23	0xbd353053	-0.04423554
24	0xbdba664f	-0.09101545
25	0x3b037db3	0.0020063936
26	0xbd435222	-0.04768575
27	0xbcc70108	-0.024292484
28	0xbd167aa7	-0.036738064
29	0xbc812a87	-0.015767349
30	0x3bd85974	0.0066024605
31	0xbda2711a	-0.07931729
32	0xbe126b0f	-0.14298652
33	0x3c3f70cd	0.011684609
34	0xbd090f6f	-0.033461984
35	0xbd1da10b	-0.03848366
36	0x3d357154	0.04429753
37	0x3bb294b5	0.005449856
38	0x3cb0551b	0.021524956
39	0xbd3288ed	-0.043587614
40	0xbd15f116	-0.03660687
41	0xbd592b61	-0.053019885
42	0xbcdd8d5d	-0.027044946
43	0x3c60841c	0.013703372
44	0x39ab1238	0.00032629236
45	0xbc079c30	-0.008276984
46	0xbcfd7387	-0.030938877
47	0xbd9262d9	-0.0714776
48	0xbcaf4d10	-0.021399051
49	0x3e6602a8	0.22461951
50	0xbe8208b4	-0.25397265
51	0xbd1cc58c	-0.038274333
52	0xbd73bea5	-0.059507985
53	0x3cc1547e	0.02359986
54	0xbce8b440	-0.028406262
55	0xbd8f5648	-0.06998879
56	0xbd8a7e65	-0.06762389
57	0xbd346b92	-0.0440479
58	0xbd11489e	-0.035469644
59	0xbd15df42	-0.03658987
60	0xbde9d186	-0.114169165
61	0x3ca358c1	0.019939782
62	0x3cc390dc	0.023872785
63	0xbe213282	-0.15741923
64	0xbc73348d	-0.014844072
65	0xa7e93a7c	-6.47339e-15
66	0xba146346	-0.0005660545
67	0xb893e07a	-7.051318e-05
68	0x3a2f434d	0.0006685749
69	0x36f28ed3	7.228789e-06
70	0xb727d5b3	-1.0003731e-05
71	0xbbb8af11	-0.005636104
72	0x399d208c	0.00029969623
73	0xba5e4a45	-0.0008479695
74	0xb65ee847	-3.321578e-06
75	0xb85555b7	-5.0862986e-05
76	0xb64fe1df	-3.0976878e-06
77	0xba5fd2ce	-0.0008538187
78	0xb95b162a	-0.00020893724
79	0xbbe4b0af	-0.00697907
80	0xb9b7327b	-0.0003494209
81	0xbb3e7e71	-0.0029067064
82	0xba374824	-0.0006991646
83	0xb8a097d5	-7.6576755e-05
84	0x35a811e6	1.2522185e-06
85	0xb6ee093a	-7.094027e-06
86	0x393eb2f9	0.00018186485
87	0xbbe7b5ec	-0.0070712473
88	0x3aab1a8a	0.0013054174
89	0x39dcec2f	0.0004213764
90	0xbc7c4112	-0.015396373
91	0xb97036ab	-0.00022908549
92	0xbbb3115d	-0.0054647163
93	0xb95bc96d	-0.00020960504
94	0x3cbdb232	0.02315626
95	0xbbc3ae74	-0.005971724
96	0xbd826cf6	-0.06368439
97	0x3aca2fff	0.0015425681
98	0xbc970210	-0.0184336
99	0xbd9524fe	-0.07282446
100	0xbc8dfed8	-0.017333433
101	0x3a834903	0.0010016266
102	0x3a93dc47	0.0011280858
103	0xbdee7e54	-0.11645189
104	0xbd12c6c1	-0.035834078
105	0xbd966466	-0.07343368
106	0xb86af4a6	-5.6017794e-05
107	0xbb70c75f	-0.0036739928
108	0xbd21b239	-0.039476607
109	0xbdd0b253	-0.10190263
110	0xbe0c7cab	-0.13719432
111	0xbd777c7d	-0.060421456
112	0xbda1d7cd	-0.07902489
113	0xbee0a402	-0.43875128
114	0x3db4c9c5	0.08827547
115	0x3b1c0ead	0.0023812458
116	0xbd8d164e	-0.0688902
117	0xbc67f4c7	-0.014157481
118	0xbc9be9ce	-0.019032385
119	0xbd40a8a8	-0.047035843
120	0x3dd136a1	0.10215498
121	0xbd8738e4	-0.06602648
122	0xbdf0fc31	-0.11766852
123	0xbdc56663	-0.09638669
124	0xbdced040	-0.10098314
125	0xbd27a6af	-0.040930446
126	0xbc00e32b	-0.007866661
127	0xbeaa4f44	-0.332636
128	0xbe36a895	-0.17837746
129	0x37ce16cc	2.456773e-05
130	0xbc99b54f	-0.018763212
131	0xbd0cf018	-0.03440866
132	0x3dcfb4f8	0.10141939
133	0xbb818a4f	-0.0039532552
134	0x3b38f993	0.002822493
135	0xbdb36bf7	-0.08760827
136	0x3e0073d0	0.12544179
137	0xbc0eb4f5	-0.008710136
138	0x3c7a2b0e	0.015269054
139	0xbcb67f87	-0.022277607
140	0x38811de8	6.15677e-05
141	0x3c444fe5	0.011981939
142	0x3e233942	0.15939811
143	0xbd4df4fa	-0.050282456
144	0xbc492187	-0.01227606
145	0x3c5c0e39	0.013431125
146	0x3d5e172a	0.05422131
147	0x3c3e7ee3	0.011626932
148	0xbd2c5a04	-0.042078033
149	0xbb2e28bc	-0.0026574573
150	0x3d47e580	0.048802853
151	0xbe18c3df	-0.14918469
152	0xbd19cac3	-0.037546884
153	0x3cab8f5e	0.020942386
154	0xbd9914b4	-0.07474652
155	0x3c706883	0.014673355
156	0xbd8068e8	-0.06270009
157	0x3d1a7973	0.03771348
158	0xbd25668c	-0.040381
159	0xbc769ce1	-0.015052051
160	0xbe3943fa	-0.18092337
161	0xba8b2f16	-0.0010618891
162	0xbd45b466	-0.048267744
163	0x3dd7994b	0.10527285
164	0x3c0871ad	0.008327884
165	0x3d2805a1	0.041020993
166	0xbc4926dc	-0.012277331
167	0xbd989f7f	-0.074522965
168	0x3d7c6a97	0.06162509
169	0x3d0f3115	0.034958918
170	0x3d9daee5	0.07699374
171	0xbcd8445a	-0.02639978
172	0x3c8c8cde	0.017157014
173	0x3b52927d	0.003213077
174	0x3e8da52e	0.27665085
175	0xbdeb6361	-0.114935644
176	0xbd89cf86	-0.06729035
177	0xbd22e405	-0.039768238
178	0x3d7ae140	0.06124997
179	0xbcbc836d	-0.023011887
180	0x3cb6e9ed	0.022328341
181	0xbc8eb2a1	-0.017419161
182	0xbda22487	-0.07917123
183	0xbd8d0366	-0.06885414
184	0xbc8d5bdb	-0.017255714
185	0xbcc41fc8	-0.023940936
186	0xbb426758	-0.0029663648
187	0x3ca72fc4	0.020408519
188	0x3c62c6a2	0.013841303
189	0xbcafe018	-0.02146916
190	0x3a6224bc	0.00086266897
191	0x3cbb5b00	0.02287054
192	0xbd579f78	-0.052642316
193	0x3481c355	2.4170245e-07
194	0xbd2e4901	-0.04255009
195	0x3c981fd5	0.018569866
196	0xbc4f6147	-0.01265747
197	0x39b34f0c	0.00034200435
198	0x3b8bf4a5	0.0042711073
199	0xbcb31801	-0.021862032
200	0xbc14104a	-0.009037087
201	0x3c4e9aea	0.012610177
202	0x3c98f059	0.018669294
203	0xbb5b0dab	-0.0033424895
204	0x3b4e2636	0.003145588
205	0xbc65c3b1	-0.014023707
206	0xbc9f6dd6	-0.019461554
207	0xbd8b4cda	-0.06801768
208	0xbd098a79	-0.033579323
209	0xbc877b9d	-0.016538436
210	0xbcb51ef3	-0.022109484
211	0x3b05fd55	0.0020445187
212	0x3bcdcd68	0.00628059
213	0xbb9adacd	-0.00472579
214	0xbca50a7f	-0.020146606
215	0xbd435b3f	-0.04769444
216	0x3d1bbc91	0.038021628
217	0xbd3b84bd	-0.045780886
218	0x3b993bd7	0.004676323
219	0x3c69f9cf	0.01428075
220	0x39011f35	0.00012314024
221	0xbc45b941	-0.012068094
222	0xba8c0411	-0.0010682364
223	0x3cf08166	0.029358577
224	0xbc82a48b	-0.0159476
225	0x90a893c0	-6.649196e-29
226	0xb29bb571	-1.8126885e-08
227	0x3ae42213	0.0017405174
228	0xb89de79d	-7.529485e-05
229	0x35676276	8.6197485e-07
230	0xb8a3e15f	-7.814424e-05
231	0xbb8d1209	-0.0043051285
232	0xb944d91d	-0.00018772898
233	0xb8b1e209	-8.48212e-05
234	0xb9066afe	-0.00012819094
235	0xb6894e31	-4.092021e-06
236	0x345ef6f1	2.0765198e-07
237	0xb78fbd81	-1.7135173e-05
238	0xb992aafb	-0.0002797468
239	0xba9d66c8	-0.0012008781
240	0xbc259bcf	-0.010107948
241	0xbac7a1c9	-0.0015230711
242	0xba0df147	-0.0005414676
243	0xb72cda29	-1.0302793e-05
244	0xb842f6c4	-4.6483023e-05
245	0xb914830b	-0.00014163197
246	0xbc73e617	-0.014886401
247	0xbb9b52ea	-0.0047401087
248	0xbaf4a360	-0.0018664412
249	0x327c15e2	1.4673306e-08
250	0xb934138f	-0.00017173424
251	0xbacd3aec	-0.0015657819
252	0xb9b234ca	-0.00033990137
253	0xb9464a61	-0.0001891046
254	0xb8880328	-6.485573e-05
255	0xba916755	-0.0011093417

fc2.bias f4 [16]
0	0xbb43e907	-0.0029893534
1	0x3e726ef3	0.23675136
2	0x38647a59	5.447338e-05
3	0x3fb38060	1.4023552
4	0x3abe99b8	0.0014541661
5	0xbc97d88a	-0.018535871
6	0xba2376cf	-0.00062356604
7	0xb8b1fa87	-8.486682e-05
8	0xbb9c9a0b	-0.0047791055
9	0xa5bbb359	-3.256086e-16
10	0xbb84f8eb	-0.0040579936
11	0x3efb4a0c	0.4907993
12	0xb8bcc2a2	-9.000792e-05
13	0x295afe03	4.8626044e-14
14	0xb8ad1965	-8.254013e-05
15	0xb7de54a9	-2.6503885e-05

linearf.weight f4 [16, 38]
0	0xbd804a18	-0.06264132
1	0xbe1bd7ef	-0.15219091
2	0x3de17382	0.110083595
3	0x3e4dc992	0.20096424
4	0x3e3f24bc	0.18666357
5	0x3d575535	0.052571494
6	0x3df18f55	0.117949165
7	0xbddc7ae9	-0.10765631
8	0x3e976cf7	0.2957532
9	0xbe001875	-0.1250933
10	0xbdc55980	-0.096362114
11	0xbf1dfb74	-0.6171181
12	0xbc81e1cd	-0.01585474
13	0xbd8127b8	-0.06306404
14	0x3c1a6045	0.0094223665
15	0xbeb9f1e7	-0.3631737
16	0x3e0e77e2	0.13912919
17	0x3e3c1ccc	0.1837036
18	0x3b9df21a	0.0048201205
19	0xbe6b8eb7	-0.2300366
20	0x3f0a4737	0.54014915
21	0xbd2ef369	-0.042712603
22	0x3bd8676e	0.0066041267
23	0xbb8f4ee1	-0.004373417
24	0xbe7cf228	-0.2470175
25	0x3e0cfc5d	0.13768144
26	0xbed09618	-0.40739512
27	0x3d72e7f7	0.05930325
28	0xbe1614bb	-0.14656346
29	0x3e712e16	0.23552737
30	0xbea0199e	-0.31269544
31	0x3e9e36f3	0.30901298
32	0xbd9e1ac6	-0.077199504
33	0x3c9d5584	0.019205816
34	0xbe770b89	-0.24125494
35	0x3f329e25	0.6977256
36	0x3c592117	0.013252518
37	0x3cbf6ae1	0.023366394
38	0x00001b87	9.875e-42
39	0x80001c4b	-1.015e-41
40	0x8801b14b	-3.9027932e-34
41	0x00001bd5	9.984e-42
42	0x80001b8f	-9.886e-42
43	0x80001b7c	-9.86e-42
44	0xb73935e1	-1.1039404e-05
45	0x00001bff	1.0043e-41
46	0xb81189c9	-3.4699016e-05
47	0x80001b5c	-9.815e-42
48	0x80001ba8	-9.921e-42
49	0xa6031309	-4.547555e-16
50	0xbb92dc04	-0.0044817943
51	0x00001c66	1.0187e-41
52	0x391978c0	0.000146362
53	0xba47f27f	-0.00076273823
54	0xb5310ce4	-6.5956397e-07
55	0x8b2211c5	-3.1213433e-32
56	0x00001c78	1.0213e-41
57	0x80001bd6	-9.986e-42
58	0xb423d7f0	-1.5259116e-07
59	0x00001bcf	9.976e-42
60	0x80001ba1	-9.911e-42
61	0xbcfa5df7	-0.030562384
62	0x00001b67	9.83e-42
63	0xad58ad6e	-1.2316688e-11
64	0x00001bd3	9.981e-42
65	0xb56be9c0	-8.7884473e-07
66	0x00001b7e	9.862e-42
67	0x3066d0b1	8.397008e-10
68	0x00001bdc	9.994e-42
69	0xb55d749b	-8.24986e-07
70	0x00001c21	1.0091e-41
71	0xb356e627	-5.003508e-08
72	0xb95b1f5d	-0.00020897151
73	0xa912e4d3	-3.2616986e-14
74	0x00001c3f	1.0133e-41
75	0x00001b86	9.874e-42
76	0x3b93b070	0.004507117
77	0xba65c706	-0.00087653135
78	0x3c46485d	0.012102214
79	0x3bcc85da	0.0062415423
80	0x3aeaec8e	0.0017923282
81	0x3c3e3f7b	0.011611815
82	0xbcc52ee0	-0.024070203
83	0x3b4a59c8	0.0030876268
84	0x3c89d62d	0.01682576
85	0x3b1675ba	0.0022958354
86	0x3ae81255	0.0017705659
87	0x3e03ca3c	0.12870115
88	0xbe7b224a	-0.24524799
89	0x3ae56065	0.0017500041
90	0xbca39a6c	-0.019971095
91	0x3b122b4c	0.002230364
92	0xbcbdab9c	-0.023153119
93	0xb9f8a200	-0.00047422945
94	0x3b290a05	0.0025793326
95	0x3b429dcb	0.0029696103
96	0xbc88d1d5	-0.016701618
97	0x3c150da6	0.009097492
98	0x3b458805	0.0030140888
99	0xbef1893d	-0.47175017
100	0x3b823c60	0.0039744824
101	0x3c0f4c65	0.008746241
102	0x3b228399	0.0024797677
103	0x3cced416	0.025247615
104	0x3b678af8	0.0035330635
105	0x3c3c0e23	0.01147798
106	0x3b6c5a34	0.0036064507
107	0x3cbb8ebd	0.022895211
108	0x3c21747d	0.009854433
109	0xbcb9037b	-0.022584667
110	0xba8320da	-0.0010004297
111	0x3d206f82	0.039168842
112	0x3b6141c9	0.0034371486
113	0x3b62c0f7	0.003459988
114	0x3e8b985a	0.27264673
115	0x3f96a380	1.1768646
116	0x3ca42aa1	0.020039858
117	0xbe8603c1	-0.2617474
118	0xbed25e5e	-0.4108762
119	0x3e9e5a20	0.30928135
120	0xbc2f636a	-0.0107048545
121	0x3e3bb9b9	0.18332566
122	0x3dc48d4b	0.09597262
123	0x3f146c9c	0.57978225
124	0x3db4079b	0.08790513
125	0xbf71058c	-0.9414909
126	0xbc1f5b9c	-0.009726431
127	0x3f17609d	0.59131795
128	0x3a1a4207	0.00058844726
129	0x3bcea127	0.006305832
130	0x3eb28abc	0.3487147
131	0xbfbbfd34	-1.4686646
132	0xbcea1eea	-0.028579194
133	0x3fabe45c	1.3429065
134	0xbea0405f	-0.3129911
135	0x3f076bb9	0.52898747
136	0x3ced2737	0.028949363
137	0xbaac03f2	-0.0013123734
138	0x3f15a8df	0.584608
139	0xbda692e4	-0.08133486
140	0x3f6afb2f	0.91789526
141	0x3e288e19	0.16460456
142	0x3ed9c58e	0.42533535
143	0xbe03e06c	-0.12878579
144	0x3f84f84f	1.0388278
145	0xbd281c86	-0.041042827
146	0xc004d824	-2.0756922
147	0xbdd826b6	-0.105542585
148	0x3d09982f	0.0335924
149	0xbf0c8842	-0.5489541
150	0x3cd9f03d	0.026603812
151	0xbd198573	-0.037480783
152	0x3886d1cc	6.4286956e-05
153	0xba88797c	-0.0010412182
154	0x3c02a4d0	0.007973865
155	0xbbd3fc1a	-0.006469262
156	0xba969799	-0.0011489271
157	0x3bccb68e	0.006247348
158	0xbd06d7fb	-0.03292082
159	0xba30cb9c	-0.00067442073
160	0xbc5b9607	-0.0134024685
161	0xbac78aff	-0.0015223919
162	0x3adcc746	0.0016844056
163	0xbc544323	-0.01295546
164	0xbde34a00	-0.11098099
165	0xba0491b9	-0.0005057115
166	0x3c1bf89a	0.00951972
167	0xbb145ac2	-0.0022637104
168	0xbcd393ab	-0.02582725
169	0xbaf28255	-0.0018501977
170	0x3a3e72f8	0.00072650565
171	0xbab7eea7	-0.0014032916
172	0xbc539233	-0.012913275
173	0x3b16f7d1	0.0023035894
174	0xb91c3583	-0.00014897254
175	0xbdb6d11a	-0.08926602
176	0x3aa14453	0.0012303687
177	0x3b895261	0.0041907285
178	0xba81e18f	-0.0009909141
179	0x3c41e93e	0.011835394
180	0xb9b93d9f	-0.0003533186
181	0x3b26ee7f	0.0025471745
182	0xba8d755c	-0.0010792422
183	0x3c18a193	0.009315866
184	0x3afb52e4	0.0019174484
185	0xbcd8c82e	-0.02646264
186	0xbbd6a330	-0.006550215
187	0xbbba6f01	-0.005689502
188	0xb89ac72d	-7.3803916e-05
189	0x37c2431d	2.3157854e-05
190	0x3cb2ddd4	0.021834292
191	0xbea5fba7	-0.32418558
192	0xbd4f9d9a	-0.05068741
193	0x3e23ed80	0.16008568
194	0x3e8cb136	0.2747895
195	0x3d118adc	0.035532817
196	0xbb28f763	-0.002578222
197	0xbe2c4cad	-0.16826124
198	0x3de271a4	0.110568315
199	0xbe757d73	-0.23973636
200	0xbf0c56cc	-0.5481994
201	0x3c0beefd	0.008540866
202	0x3d442c24	0.04789366
203	0xbe01a074	-0.12658864
204	0xbba2d8dd	-0.0049697
205	0xbebf9fa1	-0.37426475
206	0xbef2da5d	-0.47432223
207	0x3cfd7936	0.030941587
208	0xbbd30d5f	-0.006440803
209	0xbee7ba34	-0.4525925
210	0x3e100fad	0.1406848
211	0xbe148432	-0.14503554
212	0x3c009781	0.007848621
213	0xba0f469f	-0.00054655405
214	0xbe7fa098	-0.24963605
215	0xbd70ba91	-0.058771674
216	0xbef3a125	-0.4758388
217	0xbe940f24	-0.289178
218	0xbe24ccc5	-0.16093738
219	0x3dabf104	0.083955795
220	0xbec2ac8e	-0.38022274
221	0x3e822e69	0.25426033
222	0xbda93241	-0.08261538
223	0xbe996aca	-0.29964286
224	0xbee25469	-0.44205025
225	0x3f97bf7b	1.185531
226	0x3c9eb10d	0.019371534
227	0x3cd370c2	0.025810603
228	0x3e42ce2d	0.19023962
229	0xbd742d6c	-0.05961363
230	0xbf01c8f1	-0.5069724
231	0xbeeb3b9f	-0.45943925
232	0xbe2937d8	-0.16525209
233	0xbeb9e244	-0.3630544
234	0xbd5f1e07	-0.054471996
235	0x3d5a5cbe	0.053311102
236	0xbf4cf871	-0.8006659
237	0xbcb7b293	-0.022424018
238	0xbd437eca	-0.047728337
239	0x3c9e9da7	0.019362284
240	0xbd3e73c4	-0.04649712
241	0xbd38e9f7	-0.045145
242	0x3a9c9a34	0.0011947812
243	0xbc12567e	-0.008931754
244	0x3e58968f	0.21151184
245	0xbddf30aa	-0.10897954
246	0xbda181ae	-0.078860626
247	0x3b1c0f98	0.0023813006
248	0x3b377ace	0.0027996781
249	0xbe2482fd	-0.16065593
250	0xbd905d98	-0.070491016
251	0xbb969714	-0.0045956466
252	0x3d103a7e	0.035212032
253	0xbd3fb019	-0.0467988
254	0x3d3e5089	0.046463523
255	0xbe12a551	-0.14320876

linearf.bias f4 [16]
0	0x3e3e3791	0.18575884
1	0x00000170	5.16e-43
2	0xbaf219ec	-0.001847086
3	0x3b49c08a	0.0030784928
4	0xbb9aad39	-0.004720357
5	0x3f1fd789	0.62438256
6	0x3e95afc2	0.29235655
7	0xbc7582dd	-0.0149848135
8	0xbb2a3eac	-0.0025977297
9	0xba00f3c4	-0.00049191364
10	0x3ef2dcb5	0.4743401
11	0x3c815479	0.01578735
12	0x38e6f50d	0.00011012899
13	0x3f942ba9	1.1575824
14	0x3d3c597b	0.045983773
15	0xbf00d017	-0.5031752

fc.weight f4 [1, 32]
0	0x398dc15e	0.00027037686
1	0x3e8fe7c7	0.2810652
2	0xb9552f7b	-0.00020330951
3	0xbf9088b9	-1.1291724
4	0x3cf7a7f1	0.030231448
5	0x3d7cb95f	0.06170022
6	0xbb47f993	-0.0030513748
7	0xba34c32e	-0.0006895539
8	0x3ce6e2c7	0.028184308
9	0x3c5d85da	0.013520682
10	0x3bb3e809	0.005490307
11	0x3f092045	0.53564864
12	0x3b3240bc	0.002719923
13	0xbb91a34c	-0.0044445153
14	0x3bb72e03	0.005590202
15	0xb9f0c39e	-0.00045922113
16	0xbe464599	-0.19362487
17	0x3b6d1c93	0.0036180362
18	0xbd96a7ba	-0.0735621
19	0x3fa552a5	1.2915846
20	0x3cf7d427	0.03025253
21	0xbe9ff255	-0.31239572
22	0x3e78dab5	0.2430218
23	0xbca68d1b	-0.020330956
24	0x3c64b481	0.013959051
25	0x3cb47cb4	0.02203212
26	0xbe93dae2	-0.28877932
27	0x3e1e3ecd	0.15453644
28	0xba70f8c5	-0.0009192343
29	0x3fba6741	1.456276
30	0xbe38d131	-0.1804855
31	0x3ebbfcc5	0.36716285

exp_avg f4 [1, 1, 7, 7]
0	0x3b61e7bb	0.0034470398
1	0x3a6509e6	0.0008737132
2	0x3b394503	0.0028269894
3	0x3bdc89a5	0.0067302757
4	0x3b958ae2	0.0045636753
5	0xbb39c518	-0.0028346237
6	0x3baf1e6c	0.0053442027
7	0x3b9519cc	0.0045501944
8	0x3b83ddf9	0.004024264
9	0x3a11dbb4	0.00055640494
10	0xbb8f6241	-0.0043757265
11	0x3ac9bdc1	0.0015391634
12	0x3c02a7cb	0.007974575
13	0x3c121d45	0.008918111
14	0x3bae183c	0.0053129476
15	0x3ba063c5	0.004894706
16	0x3b88f3b9	0.0041794446
17	0x3ba91717	0.005160223
18	0xbb7b55e6	-0.003835076
19	0x3c262925	0.010141646
20	0x3c6f380b	0.014600764
21	0x3b791f84	0.003801317
22	0x3c396003	0.011314395
23	0x3bd61a52	0.0065338993
24	0x3c234268	0.009964563
25	0x3ab32cc8	0.0013669962
26	0x3c508d33	0.012728977
27	0x3c6a5c43	0.0143042235
28	0x3c449cef	0.0120003065
29	0x3abf8d88	0.0014614323
30	0x3b97693b	0.0046206987
31	0x3b307611	0.0026925842
32	0x3c22bb55	0.009932359
33	0x3c8435da	0.01613896
34	0x3ce7a613	0.028277433
35	0x3c020bbe	0.00793737
36	0x3c0ffa27	0.008787668
37	0x3b7821a4	0.0037861848
38	0x3c5fddd7	0.013663731
39	0x3cb4b89d	0.022060687
40	0x3d03ab2b	0.03214566
41	0x3d650fde	0.055923335
42	0x3b233839	0.0024905337
43	0x3b502baf	0.0031764319
44	0x3aeec4a0	0.0018216558
45	0x3c44ef2c	0.012019914
46	0x3c80f22a	0.015740473
47	0x3d4d3a3e	0.050104372
48	0x3da81379	0.08206839

exp_avg_sq f4 [1, 1, 7, 7]
0	0x3a1262a2	0.00055841554
1	0x3a1af134	0.0005910576
2	0x3abfd97a	0.0014636957
3	0x3a0e719f	0.0005433801
4	0x3a6e4268	0.0009088875
5	0x3a456f66	0.0007531553
6	0x3bbc170d	0.0057400526
7	0x3a039d4b	0.0005020692
8	0x3a0cffdd	0.0005378703
9	0x3a051e20	0.00050780363
10	0x39f23990	0.00046200724
11	0x3a1ce98f	0.00059857307
12	0x3a639df8	0.0008682902
13	0x3ab54cd6	0.0013832103
14	0x3a1bce11	0.0005943487
15	0x3a07dc11	0.0005182634
16	0x39fb1c42	0.00047895504
17	0x3a0c6838	0.0005356106
18	0x3a43a585	0.0007463324
19	0x3a8d1ed0	0.0010766629
20	0x3ade6836	0.0016968313
21	0x39e6865f	0.00043969133
22	0x3a0c4d28	0.00053520733
23	0x3a074c4c	0.00051612104
24	0x3a3dceeb	0.0007240611
25	0x3aac58a7	0.0013148979
26	0x3b19ae9c	0.0023450023
27	0x3b6e31b1	0.0036345536
28	0x39fcb652	0.00048201025
29	0x3a0f68e8	0.00054706493
30	0x3a2e553d	0.0006650275
31	0x3ab73a94	0.001397925
32	0x3b7cebac	0.003859262
33	0x3bde911c	0.0067922007
34	0x3c2e49a3	0.010637674
35	0x3a01f2b3	0.00049571245
36	0x3a1e5039	0.0006039176
37	0x3aa743da	0.001276131
38	0x3b3f2851	0.0029168318
39	0x3c0af77e	0.008481858
40	0x3c98ce5d	0.01865309
41	0x3cf1decb	0.029525181
42	0x3a07a90e	0.00051750324
43	0x3a31fdb6	0.000678982
44	0x3b1976f7	0.0023416856
45	0x3b83d28a	0.004022901
46	0x3c6344a3	0.013871345
47	0x3d0e4333	0.034732055
48	0x3d6d6d85	0.057965774

exp_avg f4 [16, 1, 3, 3]
0	0xb68a1746	-4.11543e-06
1	0xb6a8803a	-5.0217177e-06
2	0xb68c9939	-4.1901626e-06
3	0xb6632cc0	-3.3851684e-06
4	0xb6388cd3	-2.7500107e-06
5	0xb68cc1fe	-4.194909e-06
6	0xb6b3befa	-5.3568483e-06
7	0xb698c737	-4.5531447e-06
8	0xb63918e2	-2.7581632e-06
9	0xb9e50d45	-0.0004368817
10	0xbc17d4e6	-0.009267068
11	0xbaf160c9	-0.0018415685
12	0xbabdfbe4	-0.0014494625
13	0xba24f45f	-0.00062925176
14	0xbb542468	-0.0032370333
15	0xba1a20e7	-0.00058795366
16	0xbbf8540d	-0.007578379
17	0xbaf66814	-0.0018799328
18	0xb769ec01	-1.3942831e-05
19	0xb788df21	-1.6316366e-05
20	0xb78428dd	-1.5754655e-05
21	0xb779a8b1	-1.4880833e-05
22	0xb78dddca	-1.6911788e-05
23	0xb755c2a9	-1.2741112e-05
24	0xb78b5b18	-1.661251e-05
25	0xb753f067	-1.2632553e-05
26	0xb7824aeb	-1.5532094e-05
27	0xbc3c797a	-0.011503572
28	0xbcd4e562	-0.025988284
29	0xbd038302	-0.03210736
30	0xbad28426	-0.0016061112
31	0xbbc36b5d	-0.0059637264
32	0xbb0a3036	-0.0021085865
33	0xba4ca60a	-0.0007806724
34	0xbac2552e	-0.0014826411
35	0xbb8f3fa0	-0.0043715984
36	0xbaf0e7c0	-0.0018379614
37	0xbb5a4c32	-0.0033309576
38	0x3a82d582	0.0009981843
39	0xbb0ff4d0	-0.0021965988
40	0xbaa6b3ef	-0.0012718419
41	0xb9c9a6c3	-0.00038461955
42	0xbc230d7b	-0.009951944
43	0xb9f55ffd	-0.00046801558
44	0xba3bba31	-0.00071612286
45	0x39e597d4	0.00043791404
46	0xba05d6b9	-0.00051055435
47	0xb9939b2f	-0.00028153646
48	0x384e053b	4.91191e-05
49	0x380ce6a9	3.359342e-05
50	0x399f4471	0.00030377836
51	0xb966f7f2	-0.00022026876
52	0xbadd3b3c	-0.0016878615
53	0x39eb2ea0	0.0004485743
54	0xbc5ab175	-0.013347973
55	0xb9ffe07a	-0.00048804638
56	0xbb4601c4	-0.0030213455
57	0x3b36cc70	0.002789285
58	0xba88ec70	-0.001044644
59	0xb9fba7ab	-0.00047999373
60	0x3afa7620	0.001910869
61	0xba372e9d	-0.0006987842
62	0x3613a7ba	2.2002337e-06
63	0x39eca579	0.00045136714
64	0x389b90b1	7.417927e-05
65	0x395388d0	0.00020173495
66	0xb7620664	-1.3472138e-05
67	0xb7231928	-9.721414e-06
68	0xb7eb6d7f	-2.8065171e-05
69	0xb94d8a10	-0.00019601756
70	0x3904a0b1	0.00012648363
71	0xb5300ec3	-6.558659e-07
72	0x39b6db1a	0.00034876989
73	0x39713eb2	0.00023006907
74	0xb944dba9	-0.00018773846
75	0x395cd021	0.00021058369
76	0xba160202	-0.0005722345
77	0x3924efad	0.00015729545
78	0x3c237f47	0.009979076
79	0xbaa8ac6c	-0.0012868769
80	0xbbd09694	-0.0063656066
81	0xbb0fbd20	-0.0021932796
82	0x3beaa478	0.0071607195
83	0xbb048f81	-0.0020227137
84	0x3a7b4753	0.0009585518
85	0xbb4b71b1	-0.0031043107
86	0xbb81f426	-0.0039658723
87	0xbb3c0f2b	-0.0028695564
88	0x3a3bb5a0	0.0007160548
89	0xba96db04	-0.0011509364
90	0x39662d35	0.0002195135
91	0xba7fec8b	-0.00097627257
92	0xbbc7d364	-0.006098198
93	0xbb8fb8e1	-0.004386053
94	0xb9b5ea85	-0.0003469774
95	0xbc24f4fd	-0.010068175
96	0xbaa7fe1e	-0.0012816822
97	0xb9bfe1ea	-0.00036598678
98	0xbc16a681	-0.009194971
99	0xa4645e48	-4.951948e-17
100	0xa77a4277	-3.47305e-15
101	0xa783d458	-3.6590028e-15
102	0xa4e37952	-9.865108e-17
103	0xa5b260e3	-3.094373e-16
104	0xa649ec54	-7.005617e-16
105	0xa54ec25c	-1.7933503e-16
106	0xa5963117	-2.6054117e-16
107	0xa64ca763	-7.100357e-16
108	0x3a031d4d	0.00050016196
109	0x3a59f483	0.0008314328
110	0x3b811514	0.0039392803
111	0xbb8bdd2f	-0.0042683105
112	0xbb08af79	-0.0020856543
113	0x3b4f06e0	0.0031589791
114	0xbb57c817	-0.003292566
115	0xb99380a0	-0.00028133858
116	0xbcaa2a0f	-0.020772008
117	0xbbd3bbc9	-0.0064615947
118	0xbbad465a	-0.0052879276
119	0xba7863ee	-0.000947534
120	0xbc04521a	-0.008076215
121	0xbb953f70	-0.0045546815
122	0xba80da82	-0.0009830745
123	0xbc06334e	-0.008190943
124	0xbbdd5996	-0.0067550642
125	0xbb04078c	-0.00201461
126	0xbb0fece8	-0.0021961275
127	0xbb8dc233	-0.004326129
128	0x3adb99f7	0.0016754259
129	0x3a907133	0.0011020064
130	0xbb215f59	-0.0024623482
131	0xbaa8565e	-0.0012843122
132	0xb9b54958	-0.00034577656
133	0x39261ec6	0.00015842458
134	0xb99f0853	-0.00030333045
135	0x3c76b91e	0.015058784
136	0x3c8e8a94	0.017400064
137	0x3ce88a2e	0.028386202
138	0x3c904cd0	0.017614752
139	0x3c93c794	0.018039502
140	0x3c71e392	0.01476373
141	0x3bc76d04	0.0060859937
142	0x3c906716	0.01762728
143	0x3d4968c0	0.049172163

exp_avg_sq f4 [16, 1, 3, 3]
0	0x34b91bdb	3.4479203e-07
1	0x34e10173	4.191057e-07
2	0x34d9bb36	4.0555614e-07
3	0x3491f05b	2.7183236e-07
4	0x34869e9e	2.5074854e-07
5	0x34f22eb8	4.5110005e-07
6	0x3504a62d	4.941565e-07
7	0x34ed3945	4.418636e-07
8	0x349f9081	2.9721198e-07
9	0x377dd1e7	1.5128847e-05
10	0x3a12c911	0.0005599419
11	0x37ed5137	2.829042e-05
12	0x37b3f931	2.1454502e-05
13	0x38777485	5.8997906e-05
14	0x39769ae1	0.00023518085
15	0x37ca8e1f	2.4146457e-05
16	0x3a463782	0.0007561372
17	0x385f3e2d	5.322525e-05
18	0x364a826f	3.0176268e-06
19	0x36dd55c4	6.5962977e-06
20	0x3708c2a0	8.151546e-06
21	0x3706bda5	8.0311775e-06
22	0x368ad10f	4.137058e-06
23	0x36f3625e	7.253416e-06
24	0x36ac2654	5.1304614e-06
25	0x37025b72	7.769895e-06
26	0x36f2d047	7.2364087e-06
27	0x3afbe8d4	0.0019219168
28	0x3b101764	0.0021986598
29	0x3b15aa8d	0.0022837252
30	0x380450be	3.154645e-05
31	0x38655aa8	5.4682285e-05
32	0x37d6b79e	2.5596291e-05
33	0x375d006e	1.31727265e-05
34	0x36ec4930	7.0418682e-06
35	0x37a8208e	2.004232e-05
36	0x3ad8cfc7	0.0016541415
37	0x391a846c	0.00014735915
38	0x3895c875	7.142212e-05
39	0x3a1264ac	0.0005584459
40	0x376b4216	1.4022478e-05
41	0x36f2a221	7.2310363e-06
42	0x3b34be5d	0.0027579286
43	0x39106042	0.00013768769
44	0x36966c3c	4.4829485e-06
45	0x369a904f	4.6063574e-06
46	0x377b8f34	1.4994108e-05
47	0x38169eb4	3.591059e-05
48	0x3668b753	3.4677403e-06
49	0x360e48d4	2.120204e-06
50	0x37a38c6e	1.9496507e-05
51	0x37ca5247	2.411859e-05
52	0x38946433	7.0758535e-05
53	0x370d2038	8.411756e-06
54	0x3b917cd4	0.0044399295
55	0x3892726c	6.983135e-05
56	0x386758be	5.515734e-05
57	0x3adfacb9	0.0017065025
58	0x383dbd96	4.5237677e-05
59	0x372e1fdf	1.0378629e-05
60	0x3b9ae1a0	0.0047266036
61	0x39816e00	0.00024686754
62	0x373c26a1	1.1214667e-05
63	0x3669edc8	3.4858112e-06
64	0x3625f3a4	2.4728733e-06
65	0x37612cec	1.3421504e-05
66	0x3601f482	1.936482e-06
67	0x358e8be0	1.0620533e-06
68	0x35ebce66	1.7568934e-06
69	0x367940d9	3.7141638e-06
70	0x37170063	9.000391e-06
71	0x3710ebea	8.637997e-06
72	0x3867dcc4	5.5280296e-05
73	0x38917486	6.935843e-05
74	0x379d52ff	1.8754507e-05
75	0x39ca9469	0.00038639017
76	0x3867e55f	5.528831e-05
77	0x39179c4d	0.00014458709
78	0x3b67c133	0.0035362958
79	0x3a80db07	0.00098309
80	0x3b6d3559	0.0036195128
81	0x3af830e4	0.0018935469
82	0x3ad3c46c	0.0016156561
83	0x3b5d18ac	0.003373663
84	0x3923f84e	0.00015637392
85	0x38d43b28	0.000101199665
86	0x39631f7d	0.00021660137
87	0x389a7079	7.364242e-05
88	0x373d775c	1.1293068e-05
89	0x379a2723	1.8376455e-05
90	0x3844e71b	4.6945275e-05
91	0x38f2bcf3	0.00011574654
92	0x3b895b7d	0.0041918145
93	0x393130a7	0.0001689816
94	0x38c5e5a2	9.4364645e-05
95	0x3b77ff9a	0.003784156
96	0x38f511d2	0.0001168583
97	0x382f4fc5	4.1797543e-05
98	0x3b8a0eea	0.0042132037
99	0x3142ea8f	2.8364047e-09
100	0x3182ef2f	3.81069e-09
101	0x318d68eb	4.115568e-09
102	0x314dffda	2.997686e-09
103	0x315ffd84	3.2594878e-09
104	0x31666e09	3.3531953e-09
105	0x3150766c	3.0335299e-09
106	0x315a0e8d	3.1731446e-09
107	0x3166c63a	3.3582084e-09
108	0x39647658	0.00021787861
109	0x3935682a	0.00017300309
110	0x3bc6853f	0.0060583646
111	0x39fbded2	0.00048040465
112	0x39259b1c	0.00015793409
113	0x3b7c7d9c	0.0038527017
114	0x38facd75	0.00011959198
115	0x38269dbe	3.9724393e-05
116	0x3b22b426	0.0024826615
117	0x3a89db1e	0.0010517573
118	0x39338b2d	0.00017122617
119	0x38e42aef	0.00010879884
120	0x3b4fe65f	0.0031723005
121	0x3924dca0	0.00015722448
122	0x372aa7d1	1.0171862e-05
123	0x3bcb2c87	0.0062003764
124	0x3b5d1ba4	0.00337384
125	0x37fb4e4f	2.9957997e-05
126	0x3b6b4c2c	0.0035903556
127	0x3bd014c5	0.006350132
128	0x3bfe8c40	0.007768184
129	0x3952f2b8	0.0002011758
130	0x39863f4e	0.00025605637
131	0x396807b5	0.00022128115
132	0x36db100d	6.528577e-06
133	0x36bf9db9	5.710605e-06
134	0x3705e59b	7.980877e-06
135	0x3b580c1b	0.00329662
136	0x3b8af582	0.0042406926
137	0x3b8d324c	0.0043089744
138	0x3bc1384b	0.005896603
139	0x3b6c4773	0.003605333
140	0x3b40df8a	0.0029430115
141	0x3b633e58	0.003467461
142	0x3c4fcca2	0.012683066
143	0x3cc0eeee	0.02355143

exp_avg f4 [16]
0	0xb425f9a2	-1.5457638e-07
1	0xb9d3390b	-0.00040287556
2	0xb0e4dc73	-1.6651839e-09
3	0xb99f6a3b	-0.0003040599
4	0xba23beeb	-0.00062464055
5	0xba1624b0	-0.0005727513
6	0xb9dbe912	-0.00041944586
7	0xba62398b	-0.00086297904
8	0x38cd28a2	9.78273e-05
9	0xba0d91f8	-0.0005400474
10	0xba4ef6b8	-0.00078950403
11	0xa72947a5	-2.34923e-15
12	0xbab47115	-0.0013766611
13	0xb9ff240e	-0.00048664253
14	0x3a2a7d4f	0.0006503658
15	0x3a706414	0.0009170186

exp_avg_sq f4 [16]
0	0x301ae408	5.6348926e-10
1	0x36b13c9c	5.282067e-06
2	0x32879d33	1.5787554e-08
3	0x37f0e60e	2.8717357e-05
4	0x36cc6e81	6.092538e-06
5	0x39d960d5	0.0004146161
6	0x378313d3	1.5625648e-05
7	0x3921c850	0.00015428779
8	0x3772dc98	1.4475685e-05
9	0x373c3838	1.1218763e-05
10	0x375845e4	1.2890876e-05
11	0x3162b1c7	3.2988383e-09
12	0x3775db6d	1.4654227e-05
13	0x3740cf5a	1.149237e-05
14	0x38265087	3.965248e-05
15	0x3892e520	7.0045004e-05
