models/bestf1_noDIA_new_model_gpu_nonorm_v2_1.pt (torch, 564082 bytes, 24 tensors)

conv1.weight f4 [1, 1, 7, 7]
000000 77 e6 38 3e 48 b1 59 3e 53 7a 98 3d e8 c8 c8 3d
       0.18056665 0.21259034 0.074452065 0.09803945
000010 e7 2f 5c 3d 90 70 a4 bc 49 7b 26 be ec ed 81 3d
       0.05375662 -0.020073205 -0.16257967 0.06344208
000020 44 60 94 3d 60 40 4b bd 31 23 4b 3d 39 f3 7c 3d
       0.07244924 -0.04962194 0.049594108 0.061755393
000030 04 ad cd 3c 0a a7 fa bd d2 8e 58 bb 66 d3 2f bd
       0.025106914 -0.122388914 -0.0033044112 -0.042926215
000040 8e 97 b9 3d 9f d1 fb bb e7 69 03 be a7 c4 15 bd
       0.0906211 -0.007684901 -0.12833367 -0.036564495
000050 16 22 70 bd 39 a0 d1 bd 19 6e ff bd 7a 5b c8 bd
       -0.058626257 -0.10235638 -0.12472171 -0.09783073
000060 d3 bf 9a bd eb 6c a4 bd 2c 40 af bd 02 65 fb bd
       -0.07556119 -0.08028587 -0.08557162 -0.12275125
000070 fa 74 a2 bd 10 11 32 be fb 18 a1 3a 1b d4 38 be
       -0.07932468 -0.17389321 0.001229077 -0.18049662
000080 b7 3d c7 3d a9 c1 a1 bc 93 ab 8a bd 06 b9 b8 38
       0.09728568 -0.019745665 -0.067710064 8.808267e-05
000090 64 d2 3b bc 44 f0 4c bc e3 26 89 3d 78 af a7 bd
       -0.011463735 -0.012508456 0.0669687 -0.08187765
0000a0 81 9b da 3c 13 06 6c 3b e0 45 59 3d 09 36 2a 3e
       0.026685478 0.0036014363 0.053045154 0.16622175
0000b0 5e a5 68 3d 36 89 34 3c 8f a2 38 3e db 9e 18 3e
       0.05679833 0.011019042 0.18030761 0.14904349
0000c0 4f ee 24 3e
       0.16106533

conv2.weight f4 [16, 1, 3, 3]
000000 f1 f7 09 be cb 19 50 bc bf e4 16 bd 34 77 99 3d
       -0.13473488 -0.012701462 -0.036839243 0.07493439
000010 a4 4a b8 bc b5 bd 1e bb 0e a2 22 3d 3c 43 ad 3c
       -0.022496529 -0.002422196 0.03970533 0.021150224
000020 52 66 95 3d 00 38 41 bd 0d 0d 89 bd 56 e2 c4 bc
       0.07294907 -0.047172546 -0.06691942 -0.024033707
000030 fb eb 21 3e a5 da 36 be 11 61 df 3d 84 d1 eb bd
       0.15812676 -0.17856844 0.10907186 -0.11514571
000040 ee 95 65 3e e7 7d 37 be 29 3f 38 3c 8c 0c 93 bc
       0.22420475 -0.17919122 0.011245527 -0.017950319
000050 97 d4 bb 3d b2 6b 8b 3c 91 1c eb 3d 67 c6 5c bd
       0.09171408 0.017019127 0.11480058 -0.05390015
000060 19 e8 54 bd 26 38 e0 bd 17 f8 b1 bc 39 d9 23 3d
       -0.051979158 -0.109482095 -0.021724744 0.04000208
000070 2b 34 65 3d fc 31 46 3d f3 1c 14 bd 4c 70 25 bd
       0.055957954 0.048387513 -0.03616042 -0.040390298
000080 91 eb 3d 3d dc e9 94 bd 7e b9 09 3d b7 73 b8 bd
       0.04636723 -0.07271168 0.033624165 -0.09006446
000090 13 08 01 3c b2 37 d3 bd 2e aa 12 be ed d9 6e bc
       0.00787546 -0.103133574 -0.14322731 -0.014578325
0000a0 fd 3e d7 3c 8b d9 e2 bd 18 54 64 3d f7 47 0d 3e
       0.026275152 -0.11076649 0.05574426 0.13796984
0000b0 6e b7 bb bd fd d3 f5 3b e9 79 3f 3c 93 b2 2a bb
       -0.09165846 0.0075020776 0.0116867805 -0.002604638
0000c0 14 42 3b bc 37 e4 be bc da a8 28 bd 36 7f 33 bc
       -0.0114293285 -0.02330218 -0.041176654 -0.010955622
0000d0 1d 8e 31 bd f7 91 da bc c2 56 00 bd bb 9a 1b be
       -0.04334842 -0.02668093 -0.03133274 -0.15195744
0000e0 eb 18 31 be 71 b7 d7 bd df fe 26 be 8d 0d 34 be
       -0.17294662 -0.105330355 -0.16308163 -0.17583294
0000f0 db 56 09 3e 97 fc 32 3d 32 a6 0c bc 2d d8 86 b3
       0.13412039 0.04369792 -0.008584546 -6.2791834e-08
000100 51 32 50 b4 7f 37 de b4 15 e0 58 af e8 d4 e7 b2
       -1.9389815e-07 -4.13911e-07 -1.9724695e-10 -2.6988758e-08
000110 0e e7 c2 b5 82 48 f3 ae 22 89 2f b2 99 de e5 b4
       -1.4521372e-06 -1.10632406e-10 -1.0217521e-08 -4.2816535e-07
000120 cd b1 2c be bc ab 9a be 2a 73 8f be d7 55 3e bd
       -0.168647 -0.30209148 -0.2801755 -0.046468582
000130 0c 70 37 be 4b a4 95 bd 5b 82 09 3e 2c d4 8d bd
       -0.17913836 -0.07306727 0.13428633 -0.06925234
000140 87 6d 1c 3e 0f aa 2b 3d df d6 41 be 5f 8a 29 3e
       0.15276156 0.041910227 -0.18929623 0.1655669
000150 bd f8 38 3b ec 13 aa 3c c2 97 32 be 90 17 b0 bd
       0.0028224431 0.020761453 -0.17440704 -0.08598244
000160 22 b3 2c 3e 4d 44 9d bd 9a 8c 9e bd c1 f4 b6 bd
       0.16865209 -0.07679043 -0.07741661 -0.08933402
000170 1a 2b be 3d 20 1a a9 bb 0a eb 10 b9 b5 72 85 bd
       0.09285565 -0.005160585 -0.00013820469 -0.06516019
000180 21 34 0e 3d 5c 3a b2 3d d3 97 8e 3c 9c 7e 82 be
       0.034717683 0.087025374 0.01740638 -0.2548722
000190 97 7a 5d bd d6 94 b9 3c 7f 46 80 be ed 28 c8 ba
       -0.05407199 0.022653978 -0.25053784 -0.0015270986
0001a0 40 9a a9 3d 4d 87 0a be 8d c6 8c 3c 02 9d ab 3d
       0.08281374 -0.13528176 0.01718452 0.08379556
0001b0 b7 c5 12 bc ce 3a 8e bd b9 9e 23 3e 5e e2 16 3c
       -0.008958272 -0.0694481 0.15978517 0.009209244
0001c0 1e c6 68 3d 11 c5 c9 bd d8 98 fb ba 22 f8 e6 bc
       0.056829564 -0.098520406 -0.0019195331 -0.02819449
0001d0 03 83 5f bd 90 8e 17 3e 23 00 f4 3c 60 d8 a2 bb
       -0.054568302 0.14800477 0.029785221 -0.0049696416
0001e0 43 26 64 bd a3 91 3f 3b 14 dd ab bd 7b ac 17 be
       -0.05570055 0.0029231093 -0.08391777 -0.1481189
0001f0 84 75 6d be cf 2b 62 be 5c 3d be bd dc 7c a2 3b
       -0.2318936 -0.22087024 -0.09289047 0.004958732
000200 07 16 1d 3d ba a9 8a bd 65 62 91 3c 4f b8 4f 3d
       0.038351085 -0.06770654 0.017747113 0.05071288
000210 5b ce 12 bd 63 59 de 38 6b f8 81 3d b1 6c 59 3d
       -0.035841327 0.000106024345 0.0634621 0.05308217
000220 a2 13 06 3d 84 a4 90 bd a6 d6 41 bd 92 64 34 bd
       0.032733567 -0.07062629 -0.047323845 -0.044041224
000230 a0 e4 1e bd 9a 21 88 bd ae 6a 16 3d 0e a1 cf 3d
       -0.038792253 -0.06647034 0.03672283 0.101381406

conv2.bias f4 [16]
000000 d9 a6 f8 bd e2 80 a2 bc 5f b7 e8 3c 11 02 f5 bd
       -0.12141199 -0.019836847 0.02840775 -0.11963285
000010 d6 4e 11 bd 96 dd b1 3f 66 5d 73 3d 08 50 cb 9f
       -0.035475574 1.3895748 0.059415244 -8.6106245e-20
000020 a0 90 28 3e ad c2 52 bd 04 bf 67 be f5 9e 86 3d
       0.1646142 -0.05145519 -0.2263146 0.065732874
000030 16 35 42 3d 46 0e 54 3e 2e f5 e8 be 82 18 35 be
       0.047413908 0.2070857 -0.45499557 -0.1768513

conv3.weight f4 [32, 16, 3, 3]
000000 0c b8 9a bc e8 4a 09 bd 0b 7e aa bb 25 aa c9 bd
       -0.018886589 -0.0335187 -0.005203014 -0.098469056
000010 b6 36 11 be 59 ce f4 bd 7e 6b 07 bd 48 15 6b 3d
       -0.14181027 -0.1195342 -0.033061497 0.057393342
000020 89 7d 17 bb 7b 98 8c bc 76 f6 93 bb 6c 45 14 3b
       -0.0023115596 -0.017162552 -0.0045154644 0.0022624386
000030 b7 b5 a6 bc 3e 01 f6 bd 89 f3 49 3d 19 83 d7 bc
       -0.02035032 -0.12011956 0.04930452 -0.02630763
000040 40 6e 06 3d 30 17 1c 3d a0 ca 97 3c c7 29 21 3d
       0.032819986 0.03810805 0.018529236 0.039346483
000050 8a b5 81 3d 3e 36 2f 3d ee 9e 82 3c 28 bc 52 3d
       0.06333454 0.04277634 0.015944924 0.05144897
000060 66 e0 ab bc c4 af dd bc 0f 44 0d be 01 33 9a bc
       -0.020981025 -0.02706135 -0.13795494 -0.018823149
000070 e0 6c 81 bd cf b1 27 bd bd 4b 62 3b 62 01 d8 3c
       -0.063195944 -0.040941056 0.0034530007 0.026367847
000080 2c bc c6 3c c9 9e f4 bc ec 1f 75 bd 30 cd 24 bd
       0.02425965 -0.02986087 -0.059844896 -0.040234745
000090 47 56 91 bd 22 6f 09 bd ed a9 c8 bb 30 72 25 bd
       -0.07096534 -0.03355325 -0.0061237724 -0.0403921
0000a0 ae 33 28 3c 86 ab 83 3b ca ab 5d 3d 5c fe 1e bc
       0.010266228 0.00401825 0.05411891 -0.009704199
0000b0 c2 16 5d 3d fc c0 a0 bd 06 28 1f bd b9 b6 25 3c
       0.05397678 -0.07849309 -0.03885653 0.010114365
0000c0 02 4a 34 3d a6 b7 90 3d 69 85 a6 3d d7 63 81 3d
       0.04401589 0.07066278 0.08130915 0.06317871
0000d0 6d ee 12 3d 33 15 1e bd 02 12 db bd a7 6f bf bd
       0.03587191 -0.038594436 -0.10696794 -0.09347468
0000e0 a1 ce 7b bd 6c bc 02 bd 68 02 d0 3b f2 a0 9b bb
       -0.061476354 -0.031917974 0.006347943 -0.004749411
0000f0 1b 5a 5e ba fe 1f c8 bc 5b 0d 54 3d 94 bd cb 1c
       -0.00084820547 -0.024429318 0.05177055 1.3482418e-21
000100 0e fb 29 9c 70 5c e5 1d 2b d2 19 9e 61 d0 a6 1c
       -5.624189e-22 6.0711373e-21 -8.143214e-21 1.1038823e-21
000110 a1 ca 26 1e 80 0e 55 1e 94 ae 7b 1e 38 1d c6 1e
       8.8298695e-21 1.1279125e-20 1.3323931e-20 2.097615e-20
000120 3f 54 bc bd 39 57 17 bd 0d c3 4c bb c8 ed 2d bd
       -0.09195756 -0.036948416 -0.003124419 -0.042463094
000130 f3 87 77 bc 67 d1 ea 3c fa e1 2a 3d a0 77 24 3d
       -0.015108096 0.028664304 0.041719414 0.040153146
000140 2f 54 07 3d a0 92 d9 bd 42 7d 06 bc 93 0e 9b 3d
       0.033039268 -0.106236696 -0.008208575 0.07571139
000150 8b b5 3d 3d ba df c4 bb e9 f8 6f bb 4d 70 05 3d
       0.04631571 -0.0060081156 -0.0036616868 0.0325778
000160 02 68 cd bc 2d bd 32 3d 6f e5 d6 bc 3f d8 55 3c
       -0.025074009 0.043637443 -0.02623245 0.013052045
000170 9e 2c c5 3c ba ba aa bd 01 b0 ff bd a7 df 22 bd
       0.024069127 -0.083363965 -0.12484742 -0.039764073
000180 82 60 d8 3b a6 da a8 bb 0f 23 1c 3b a3 00 8c bd
       0.0066033015 -0.005153018 0.0023824607 -0.06836059
000190 24 27 b9 bc 3c 3f 6a 3d 4e f4 0a be f2 1f af bd
       -0.022601672 0.05718921 -0.13569757 -0.08551015
0001a0 82 dd f2 bd 33 f4 8d 3d 13 3a 87 3c 4f 89 a5 bc
       -0.118586555 0.06931343 0.016507184 -0.020207075
0001b0 f1 ef d1 bc de f2 35 bc 6a 8b 8b bd d7 1d db bc
       -0.025627108 -0.011105267 -0.068137005 -0.026747627
0001c0 0f 14 f5 3c e7 5a 92 3d a0 5d de bc 8e 6e b5 bc
       0.029916791 0.071462445 -0.027144253 -0.022147443
0001d0 e9 12 e1 ba dc 4f 15 bd f6 35 0a 3d 15 7e cc bd
       -0.0017171773 -0.036453113 0.033742867 -0.09984986
0001e0 ee b2 fa 3d 0c fd 9c bc e7 8e 32 3d 4a 87 d8 3c
       0.122411594 -0.01916363 0.043593314 0.026431698
0001f0 56 c5 a9 bb 0b 4f 3a 3c 73 62 d6 bc c9 ad 4f bc
       -0.005180995 0.011371384 -0.026169991 -0.012675711
000200 a4 36 d0 bc 2f a1 fa bc 8e e5 68 bd aa 32 97 bd
       -0.02541668 -0.030594436 -0.056859545 -0.0738271
000210 13 97 e7 bc e0 6b 07 3d b7 7c 9c bc d8 0c ad 3c
       -0.02827028 0.033061862 -0.019102437 0.021124288
000220 f2 da 7f bd 47 11 52 3d b3 59 cb bc ed e3 3f 3c
       -0.062464662 0.05128601 -0.024823045 0.011712057
000230 8c 41 b8 3d 38 1e e9 bc df de 15 3c 3a 6d ac b9
       0.08996877 -0.028456792 0.009147375 -0.00032887777
000240 67 13 8e bc 35 0c 1e bc db b0 a7 3b a8 0d 38 3c
       -0.017343236 -0.009646465 0.0051175184 0.011233725
000250 f0 fc c8 bc a7 05 f3 bc 57 a6 44 3c 3d ee 25 3d
       -0.024534672 -0.029665781 0.012002549 0.040510405
000260 a7 1e 0c bd 95 3a f3 3c 68 8c 57 3c 63 9e ad 3c
       -0.03420892 0.02969102 0.013156034 0.021193689
000270 e0 fd 8a 3d 65 4c 02 bd 43 5d 29 3d 24 25 9b 3c
       0.06786704 -0.031811137 0.041348707 0.018938608
000280 ee ef 57 3b 87 42 83 3d d6 5b b0 3c f7 73 31 3d
       0.0032949406 0.064091735 0.021528166 0.043323483
000290 c5 a9 f2 3c 0c ba 87 bc f8 91 65 3c 0f 59 b4 3d
       0.029621968 -0.016568206 0.014011852 0.08806049
0002a0 9a 7e 2b bc 30 af 45 3d a2 a3 e7 bd 45 dd 61 3d
       -0.010467196 0.048262775 -0.11310507 0.05514266
0002b0 10 10 0a bd e8 4a 0e bc 7f e1 ea bc 6b f2 be ba
       -0.033706725 -0.008684851 -0.028671978 -0.0014568096
0002c0 6b 54 aa 3d 67 e8 a1 bd f4 a7 86 3c c2 0c 15 bd
       0.08316883 -0.07905655 0.016437508 -0.03638912
0002d0 e5 b5 89 bc 9d 5d 8d bd 33 96 6d bc e7 44 32 bb
       -0.016810367 -0.06902621 -0.014501142 -0.0027201714
0002e0 52 50 b7 bd 68 24 00 be f4 85 4a 3b e2 1f bb bd
       -0.08950867 -0.12513888 0.0030902596 -0.091369405
0002f0 88 da 62 ba 41 47 90 3d 24 d8 47 bd b1 0c 95 3c
       -0.00086537795 0.070448406 -0.048790112 0.018194528
000300 e0 e2 1b bd 98 99 0c 3b c5 ab 82 3d 7b c5 d0 3c
       -0.03805816 0.0021453854 0.06380419 0.025484791
000310 e0 93 95 3c e2 17 42 3b e0 51 c8 bc de 86 b8 bd
       0.018258989 0.0029616286 -0.024453104 -0.09010099
000320 a0 10 b7 bd cb 19 28 bd bd f1 3e bd d3 a0 ac bc
       -0.08938718 -0.041040223 -0.04661726 -0.02107278
000330 3c b0 23 bd 44 de 98 bd 4f 01 3c 3d 43 56 4a 1e
       -0.039962992 -0.07464269 0.045899685 1.07116295e-20
000340 91 a3 3c 9e 4a b4 b4 9e e8 b0 71 9d 28 76 39 9e
       -9.986462e-21 -1.9132807e-20 -3.1987543e-21 -9.8182526e-21
000350 7d 5c c7 9e 4c f3 2c 1f bd b5 7a 1f f4 77 6d 9d
       -2.1108197e-20 3.6623667e-20 5.308989e-20 -3.1428703e-21
000360 14 14 85 bd 4b 1e bd bd 18 58 8c bd 0c 53 48 3d
       -0.0649797 -0.092342936 -0.0685274 0.048907325
000370 9c 88 99 bd 2c a6 cf bd 44 cf 9d bd 5b 25 6d 3c
       -0.07496759 -0.10139117 -0.077055484 0.014474238
000380 f9 42 04 bd ee 56 e3 3d 8a 0b 95 bd 58 54 f0 3c
       -0.032290433 0.11100565 -0.072775915 0.029337093
000390 dc 03 15 3a a5 c4 95 bc de 98 3a bc 10 cb 18 3d
       0.0005684474 -0.018282244 -0.011388985 0.03730303
0003a0 4c e0 81 bd 15 14 c1 3b 96 5f 09 ba a9 fe 08 3b
       -0.06341609 0.0058922865 -0.00052403787 0.0020903742
0003b0 c0 8a 85 bc 9c 80 1a 3c 92 d6 b2 3b 55 c5 99 bd
       -0.016301513 0.009430077 0.0054577077 -0.07508341
0003c0 61 04 dc 3d 96 81 64 bc 30 a8 58 3c a7 77 69 bc
       0.10743023 -0.013946911 0.013223693 -0.014249719
0003d0 96 24 1f bd ee 38 01 be 5d 6e 8c 3b a0 ed 4e bd
       -0.03885325 -0.12619373 0.0042856173 -0.050519586
0003e0 4a cf aa bd 45 87 6c bd 92 05 a4 3c c1 da c7 bc
       -0.083403185 -0.05774619 0.020022187 -0.024396302
0003f0 1a e1 84 3d 87 42 35 bc 00 af 83 bc 85 58 21 3d
       0.06488247 -0.011063225 -0.016074657 0.03939106

conv3.bias f4 [32]
000000 de 29 61 3d a0 7c 0d 3e 71 2b 2f 3e 84 5c 39 3e
       0.05497157 0.13817072 0.17106415 0.18101698
000010 b9 cc c1 3e 1d f6 11 3e 07 07 c5 3c 54 8f 22 3d
       0.37851503 0.14254041 0.024051202 0.03968747
000020 6e 58 14 3e f0 20 c8 3d 42 6a 39 bd d9 4a 78 3e
       0.14486858 0.09771907 -0.04526735 0.24247302
000030 10 8a e6 3e e1 23 ab 3e d1 4c 87 3d 2a 11 e7 bc
       0.45027208 0.3342581 0.066064484 -0.028206427
000040 35 b6 00 bd 15 da a9 be c0 cb 56 3d ac e6 37 3d
       -0.031423766 -0.33174196 0.052440405 0.04489772
000050 a4 f4 d8 bc d8 63 cb bc 47 e2 9c bd 56 73 73 3d
       -0.026483841 -0.024827883 -0.076603465 0.059436165
000060 48 ce 69 3d 28 f9 47 3e ae cf 6a 3e 8a a6 05 3e
       0.05708149 0.1952864 0.22930786 0.13051811
000070 71 8f 19 bd 03 2e 20 3e 8b e4 98 3d 30 eb de bc
       -0.037490312 0.15642552 0.07465466 -0.027211756

fc1.weight f4 [32, 1280]
000000 c0 2e e7 bb 32 fc ec bb ea 3f b2 bb a8 0d 62 bb
       -0.0070551336 -0.0072322125 -0.005439748 -0.0034493003
000010 94 7e 86 3b 11 5e de ba 89 9a 0c bc 62 16 5f b9
       0.0041044448 -0.001696529 -0.008581766 -0.00021275276
000020 a6 ec 73 3b ef b8 58 3c 64 20 32 bb a4 12 f4 3c
       0.003721991 0.013227685 -0.002717995 0.029794045
000030 01 68 2d 3b 9f 1f 16 3b e1 7c d8 bb cf 36 4e 3b
       0.0026459696 0.0022907031 -0.0066066836 0.0031465774
000040 40 af 9a bc b8 ce ab 3c c5 1f 40 bc c6 8a 92 bb
       -0.018882394 0.020972595 -0.011726324 -0.0044721095
000050 bd 39 81 39 8f 89 1c 3c f2 d1 f2 bc 72 f4 5a bb
       0.00024647816 0.009554281 -0.029641125 -0.003340986
000060 5f b7 e0 3b dd 6f 9a ba db 5e 45 bb c6 f7 aa bb
       0.006857797 -0.0011782605 -0.0030116353 -0.005217525
000070 38 b7 8a bc d9 23 bb bc ec 44 1d 3b b9 55 78 bc
       -0.016933069 -0.022844242 0.002399738 -0.015157157
000080 48 12 9b bc ff 15 85 bb 31 6e 3a bb 40 e6 83 bb
       -0.018929616 -0.00406146 -0.0028447027 -0.0040252507
000090 49 66 36 3b 69 e5 15 3c f4 8d f0 39 6a d9 16 3a
       0.0027831963 0.009148934 0.0004588213 0.0005754443
0000a0 14 ce 95 b9 c5 fa 4a bc 59 60 94 b9 20 57 16 3b
       -0.00028573035 -0.01238889 -0.00028300544 0.0022940114
0000b0 0f d4 93 bb 25 19 ab 3c 0f 78 c6 3a 4f b5 41 3c
       -0.0045113633 0.020886013 0.0015141981 0.0118230125
0000c0 51 23 25 3c 33 c3 73 bc 5f 5a 52 bc 62 99 11 3d
       0.010079221 -0.014878082 -0.012838929 0.035546668
0000d0 a7 63 0e 3c 36 15 ab bc e8 5f 80 bc 40 31 95 bc
       0.008690751 -0.020884138 -0.015670732 -0.01821196
0000e0 f4 97 ef 3a 32 b3 84 3c d4 72 61 bc 83 ec 22 bb
       0.0018279538 0.016198728 -0.013760287 -0.002486021
0000f0 8c da e7 3b 99 8e 66 bc a3 7e f0 3a 32 dc a9 bc
       0.0070756134 -0.014072084 0.0018348288 -0.02073488
000100 0d 96 43 3a a1 e1 e5 3b c6 ad c5 3a fe ba c4 3a
       0.0007461019 0.0070154225 0.0015081696 0.0015009341
000110 48 5b 6c 3c b1 5f d6 bc 9e 09 73 bc 62 17 78 3b
       0.01442606 -0.026168676 -0.014833836 0.0037855734
000120 b5 5c 18 3c e5 53 d7 3b 5e 48 84 3c f4 29 f5 3b
       0.009299447 0.0065712803 0.016147789 0.007481808
000130 d8 a0 82 3b fd 38 96 bb fa 09 69 3c 5f 30 29 bc
       0.003986459 -0.0045844303 0.01422357 -0.010326474
000140 63 8d 5d bc df 56 94 bc ff 55 57 bc 09 47 62 3c
       -0.013522479 -0.01810783 -0.013143062 0.013810881
000150 26 20 2f bc 18 2e 56 3c c8 f3 37 3c 14 a4 12 bc
       -0.010688817 0.013072513 0.011227556 -0.008950252
000160 a2 58 b7 bb b0 fc 48 bc 49 24 df 3c fb b9 97 3c
       -0.0055952827 -0.012267277 0.027238982 0.0185213
000170 e5 00 46 ba 37 92 2b bc 45 2e bd 3b 53 e2 80 bc
       -0.0007553234 -0.010471872 0.005773338 -0.01573292
000180 7e 52 ec 3a ca 79 c8 3c a7 df 9c bc 23 38 b0 bc
       0.0018029956 0.024472136 -0.019149614 -0.021511143
000190 4d a3 bc 3c 83 6a 9b 3c 3b 31 a9 bc f3 23 71 bc
       0.023027087 0.018971687 -0.020653358 -0.014718044
0001a0 95 0a 8c 3c 44 b5 12 3c 05 7e dd bc fe 18 b0 3b
       0.01709489 0.00895435 -0.02703763 0.005374073
0001b0 62 bb b2 3b 7d 77 cf bc 8f d3 9c bb be c1 0a bc
       0.0054544667 -0.025325531 -0.004785962 -0.008469043
0001c0 fb 35 76 3a cc 18 69 bc 0c 58 48 3c 71 98 29 3c
       0.0009392199 -0.014227103 0.012228023 0.010351286
0001d0 66 2d 1c ba fe 1c 57 bc 16 ea bd 3a c6 fd 81 bc
       -0.00059576926 -0.013129471 0.0014489319 -0.015868079
0001e0 3a 8f b6 3a 54 db ca 3b 37 f6 14 3c 8d 5d 0d bc
       0.0013928183 0.0061906967 0.009091905 -0.008628261
0001f0 84 0f ad bb 2b ee a9 3b 36 09 35 3c 54 ee 15 3b
       -0.0052813906 0.0051858625 0.011049559 0.002287765
000200 2e 70 6a bc 69 15 81 bb d0 5f 12 3b c5 f6 8e 3c
       -0.014308972 -0.00393932 0.002233494 0.017451653
000210 d2 ac 0b 3c 52 a8 15 3c 2c fe 46 b9 df f6 0c 3a
       0.00852509 0.009134369 -0.00018977438 0.0005377363
000220 f8 c4 62 bc 09 06 67 bb bf 35 c6 ba 2b b3 40 bc
       -0.013840906 -0.00352514 -0.0015122219 -0.011761467
000230 9c 1f 32 bc 98 83 21 bc 15 a8 02 3d 8c 22 db b8
       -0.010871794 -0.009858035 0.031898577 -0.000104491686
000240 b2 eb af 3b f5 70 3b bc bb 86 68 bc af 79 eb 3b
       0.0053686732 -0.011440505 -0.0141922785 0.0071861367
000250 83 72 be 3c 64 76 bb bb fc 87 d1 3b cc 25 d6 bb
       0.023247963 -0.0057209004 0.0063943844 -0.0065352675
000260 69 fa 72 bc 72 02 f1 bc 7f a0 46 bc 76 bd 4a bb
       -0.01483021 -0.029420111 -0.012123226 -0.0030935681
000270 fa db 32 bb a6 1e c8 3b 86 40 ca bc 0b b7 0d 3a
       -0.002729176 0.006107169 -0.02468897 0.00054059987
000280 c1 09 33 ba ed e8 4d bb 6c ee 5f bc c7 7d be bb
       -0.00068297616 -0.0031419352 -0.013667684 -0.0058133337
000290 8a 62 4d bc 97 83 16 bb ee 3d 05 bc 6f 8b 23 3c
       -0.012535701 -0.0022966617 -0.008132441 0.009981974
0002a0 4d e8 f3 bb d4 47 e7 b8 b9 0a af 3a 58 0d c6 3c
       -0.007443464 -0.000110283174 0.0013354636 0.024176285
0002b0 b3 6f 91 3c 8d b8 63 3c b7 2b 29 bc 1d f1 2f bc
       0.017753458 0.013898981 -0.010325364 -0.010738638
0002c0 0b c0 10 bc cb 49 7d 3c 72 c3 85 bc 24 ad 47 ba
       -0.008834849 0.015459488 -0.016328547 -0.00076170475
0002d0 16 0e cf bb ab 3f 0b 3c 17 ba 98 bc a9 7c 9c 3c
       -0.006318818 0.008499066 -0.018643422 0.019102411
0002e0 ea a1 46 bc 27 98 6e bc 33 21 cf bb 27 f8 c1 bb
       -0.012123564 -0.014562643 -0.0063210963 -0.0059194746
0002f0 c5 50 6d bc 6c c2 f5 bb cf ac 34 bc 0e fa 7a bb
       -0.014484589 -0.0074999835 -0.011027529 -0.0038296017
000300 1e 90 54 bc 66 29 25 bb 26 fc 21 bc 66 b0 df bb
       -0.012973813 -0.0025201677 -0.009886777 -0.0068264483
000310 a7 26 14 bc 22 28 8e ba d4 03 ea bb e3 54 0e bc
       -0.009042419 -0.0010845701 -0.0071415696 -0.008687231
000320 c4 e0 c1 3b bb 1e 89 3c b8 98 af 3b 2a 69 2b 3a
       0.0059166867 0.016738286 0.0053587817 0.0006538803
000330 ca a2 2f bc 82 42 5c bc a0 0d a7 3c 9f 27 21 3c
       -0.010719964 -0.013443591 0.02039224 0.009836107
000340 19 80 75 3c 36 70 16 bc 83 71 bd bb 0c 07 ab b9
       0.014984154 -0.009182027 -0.005781354 -0.00032620912
000350 b3 90 87 3c 71 98 1a 3b 12 66 28 bb f0 f8 42 bc
       0.01654849 0.0023589397 -0.0025695604 -0.011900172
000360 26 37 d6 b9 2e f7 11 bc 70 38 3c 3b 84 f6 b9 bb
       -0.0004085835 -0.00890903 0.0028720163 -0.005675139
000370 8a 76 3f bb 38 a0 a6 3c 71 f0 b0 bc 88 4b 16 bc
       -0.0029214942 0.02034007 -0.021599026 -0.0091732815
000380 47 b3 39 bc 70 e6 23 bc 04 de 02 bc 79 ad 91 3c
       -0.011334247 -0.010003671 -0.007987503 0.017782914
000390 c1 f1 fa bb 76 f3 ab 3a c6 67 4d bb d9 51 ae 3c
       -0.007658214 0.0013118822 -0.0031342371 0.021279262
0003a0 25 83 cb 3b c8 28 69 bc 3f e5 ef bb f6 52 8f 3b
       0.006210702 -0.014230914 -0.0073210294 0.0043739034
0003b0 59 4b b8 bb 57 ef 73 3c 9c b5 d1 3c 00 b6 f5 bb
       -0.0056242165 0.014888606 0.025599293 -0.0074985027
0003c0 e8 cf 9c ba d4 db 0e bc 27 2f 92 bc c4 9e 24 bc
       -0.0011963816 -0.008719403 -0.01784475 -0.010047618
0003d0 57 77 75 bc d4 be 6f 3a d7 9c ea 39 4c bc 76 bc
       -0.014982066 0.0009145562 0.00044748813 -0.015059542
0003e0 e2 a3 a1 bc eb 9c 34 3c b0 db 99 bb 5d 00 87 bc
       -0.019731466 0.01102374 -0.0046953782 -0.016479665
0003f0 99 46 3f 3b 9d 9e 37 bb 1f 55 b9 bb ed 17 29 bc
       0.0029186367 -0.0028018125 -0.005655899 -0.010320646

fc1.bias f4 [32]
000000 b6 b4 91 ba b5 92 1f b8 e4 d0 29 3e b7 77 05 97
       -0.0011116478 -3.8045186e-05 0.16583592 -4.312572e-25
000010 dc 08 00 80 15 fb 1c 3c 4a 71 8e bb 63 e3 70 3d
       -3.178e-42 0.009581347 -0.004347001 0.058810603
000020 af e1 c3 b9 f1 ba 02 bc 07 af ed 3d c6 8a eb a0
       -0.00037361446 -0.007979141 0.116056494 -3.990238e-19
000030 14 a5 29 39 42 b6 5e 3d 45 66 1a 3c 38 e0 0a 3a
       0.00016178592 0.054373033 0.009423797 0.00052976934
000040 d3 d7 e5 b9 be 97 74 3d de 34 aa 3d cd 97 57 3b
       -0.00043839085 0.059715025 0.08310865 0.0032896877
000050 c1 b0 51 3d b0 a3 80 b9 38 9c 04 bb 1a 08 00 80
       0.051193956 -0.0002453602 -0.0020234715 -2.906e-42
000060 24 d9 2c 38 9b e6 19 ba 04 bf c3 ba 31 3d ea 3c
       4.1210224e-05 -0.000587085 -0.0014934246 0.028593631
000070 8b 7e 26 3c be c3 45 ba 6f 97 9c 3b 01 88 32 bc
       0.010162006 -0.00075441215 0.0047787945 -0.010896684

fc2.weight f4 [1, 32]
000000 c4 40 22 ba 65 8f 80 3b c4 be 52 be 1a a6 b9 ba
       -0.00061894604 0.003923344 -0.20580584 -0.0014163882
000010 47 ae e0 b9 3d ae 67 3e 62 26 a6 3d f7 86 e1 be
       -0.00042854456 0.2262506 0.0811279 -0.44048283
000020 1a ab 81 3b 8a 66 58 3e aa a7 c1 be 27 6f d3 b9
       0.0039571645 0.21132866 -0.3782323 -0.0004032787
000030 0d a5 15 3b a3 c3 84 3e bf b2 29 3e 91 56 92 3b
       0.0022833974 0.2593051 0.16572092 0.004465886
000040 72 2b cd 3a a7 b3 09 be 16 4d 4e be 49 a2 67 be
       0.0015653207 -0.13447438 -0.20146593 -0.226205
000050 1a 4f e7 bd 30 ab ac 3b 18 9e 9e 3b e0 c7 08 3a
       -0.11294384 0.0052694306 0.0048406236 0.0005217772
000060 40 24 07 ba 07 c7 1e bb 8d 90 c5 3b 26 bd 39 3f
       -0.0005155243 -0.0024227516 0.0060291947 0.7255424
000070 b8 51 33 3e d8 6b cd 3b d5 6d 8a 3e e8 5e 06 3e
       0.17511642 0.0062689595 0.2703692 0.13122141

exp_avg f4 [1, 1, 7, 7]
000000 b9 67 65 3d 38 3c 8e 3d bd e6 2f 3d 30 77 99 3c
       0.05600712 0.069450796 0.04294466 0.01873359
000010 f9 f1 8a bc cb 48 2a 3d 5f 67 8b 3d c4 fb 38 3d
       -0.016961085 0.041573327 0.06806826 0.045161977
000020 f2 97 8d 3c 20 a7 a8 3c fe 6d 92 3c 0e 26 d8 bc
       0.017284367 0.020587504 0.017874714 -0.026385333
000030 37 b8 9d 3c e4 b5 3b 3d 96 50 99 3d a4 32 db bb
       0.01925288 0.04582776 0.07486074 -0.0066893864
000040 3b ca 0b 3c 41 7c 3f 3d fc 99 35 bd 14 74 e6 3c
       0.008532102 0.046749357 -0.044336304 0.028131522
000050 de a3 87 3d fb 9a f3 3c 36 7f 25 3c 31 07 d6 3b
       0.06623052 0.029736986 0.01010113 0.006531619
000060 f9 99 14 3d 91 16 2a bd 08 40 c2 3c 8e 88 ac 3d
       0.036279652 -0.041525427 0.023712173 0.08424483
000070 9e 4c 6a bc 83 5a 01 3d b3 67 1f b8 ea dc a5 3c
       -0.0143004935 0.03158046 -3.800513e-05 0.020246942
000080 04 bb 43 bd 5d 44 ef 3c 7f 97 9a 3d 19 ef 01 bd
       -0.047785774 0.029207403 0.07548427 -0.031722162
000090 e0 20 18 3d 1a ea ff bb cd e3 2e bb ff 43 58 bd
       0.037140727 -0.0078098895 -0.0026686073 -0.05279922
0000a0 9a d2 c7 3c 80 39 a2 3d e2 64 9e bc f8 cd 67 3d
       0.024392415 0.079211235 -0.019335214 0.05659291
0000b0 95 75 16 bc 86 2a 4f 39 ae e3 1c bd d2 25 fc 3c
       -0.009183307 0.000197569 -0.03830307 0.030779753
0000c0 ad 9f c0 3d
       0.09405456

exp_avg_sq f4 [1, 1, 7, 7]
000000 5b b3 12 3f 3b 00 3a 3f a7 76 13 3f 26 59 14 3f
       0.57304925 0.726566 0.57602924 0.5794853
000010 3c 11 12 3f c9 20 0d 3f cc a0 0b 3f ec e6 13 3f
       0.5705755 0.5512815 0.5454223 0.57774234
000020 0c 2b 11 3f 71 0b 16 3f e4 bf 0f 3f b4 21 12 3f
       0.5670631 0.5861121 0.56152177 0.57082677
000030 86 52 0c 3f 17 8d 0a 3f b6 c0 1d 3f 6c 74 10 3f
       0.5481342 0.54121536 0.6162218 0.56427646
000040 a8 bd 0f 3f 49 a1 0c 3f 4b 8a 1b 3f 47 6d 0b 3f
       0.5614877 0.549336 0.60757893 0.5446362
000050 fd 13 14 3f b8 6a 15 3f 9e 11 12 3f 8d 2f 0d 3f
       0.57843 0.58365965 0.5705813 0.5515068
000060 d1 11 0c 3f 67 db 17 3f fa 94 0c 3f 77 19 0b 3f
       0.54714686 0.59319156 0.5491482 0.5433573
000070 59 bb 10 3f da e8 11 3f a3 e4 0d 3f 4a 43 0f 3f
       0.5653587 0.5699593 0.55426997 0.5596205
000080 24 5a 13 3f f5 3c 4a 3f 22 f2 5e 3f 59 f6 13 3f
       0.5755942 0.78999263 0.87088215 0.5779777
000090 01 f0 54 3f 4c ac 23 3f 09 2c 15 3f 26 b1 6e 3f
       0.83178717 0.6393478 0.5827032 0.9323906
0000a0 01 c7 13 3f 98 3c 16 3f 8c 19 17 3f 6e 4c 15 3f
       0.5772553 0.5868621 0.59023356 0.5831975
0000b0 bc 48 24 3f 2e 62 15 3f ba 18 17 3f 3b c3 22 3f
       0.64173484 0.58352935 0.59022105 0.6357915
0000c0 36 45 0f 3f
       0.5596498

exp_avg f4 [16, 1, 3, 3]
000000 74 32 5f 3b f3 2f e3 bc c6 32 43 bd a8 85 e1 bc
       0.0034057172 -0.027732825 -0.047655843 -0.027529553
000010 9d 3e 98 bd bd 23 e0 bd 0c 64 b3 bb f3 a1 93 bd
       -0.074338175 -0.109443165 -0.005474573 -0.07208624
000020 ef 98 d2 bd 5a c3 b9 3b 3b ca 93 3c cb f8 8a bd
       -0.10283076 0.0056690397 0.018040767 -0.06785735
000030 84 28 4a 3d 8f 4a 32 3d 4a bc 91 bc d3 5b 30 3d
       0.049355045 0.043528136 -0.017789979 0.04305632
000040 20 8c 6e 3d 36 8e ed 3c 3d 66 24 bd 80 5d 0c bc
       0.058239102 0.028998476 -0.040136565 -0.008567214
000050 92 91 0c 3c 5e 2d bc bb 5d 4c 45 3c af fc 20 3d
       0.008579629 -0.005742713 0.012042132 0.039303478
000060 aa a6 5f bb 12 a7 b3 3c 5b 05 50 3d 1e d5 06 3d
       -0.003412644 0.021930251 0.050786357 0.03291809
000070 d7 f6 06 3d 82 ea a5 3c d5 f4 4d 3c e4 38 85 3b
       0.03295025 0.020253424 0.01257058 0.00406562
000080 62 88 14 bd 36 53 67 3b 9d 3e ad 3c 6d 78 f3 3c
       -0.036262877 0.00352974 0.02114802 0.02972051
000090 20 64 03 bd af b1 14 bd 43 1f 4c 3b 6b 96 0c bc
       -0.03207791 -0.036302265 0.0031146563 -0.008580784
0000a0 37 a0 af bc e4 24 60 3c 58 a0 18 3d 5d c4 17 bb
       -0.021438701 0.01368067 0.03726229 -0.0023157813
0000b0 8e 06 c0 3c f1 92 2c 3d 9a 3c 80 3d 2b 74 02 3c
       0.023440626 0.04213232 0.06261559 0.007962267
0000c0 ae 94 05 bb a5 77 aa 3b 94 3f 4f bb d6 cd e4 3b
       -0.002038281 0.005202251 -0.003162359 0.0069825454
0000d0 de 75 62 38 8d 2d 87 3c c0 12 6e 3d d9 48 3b 3a
       5.399237e-05 0.016501212 0.05812335 0.0007144339
0000e0 2a 7a cb ba 50 a1 3b 3d 32 01 21 ba ea 04 9a bb
       -0.0015524079 0.045808136 -0.0006141841 -0.004700293
0000f0 26 de 11 3c 6e a9 9c bc 53 69 8c bc 93 3e 09 af
       0.008903062 -0.01912376 -0.017140066 -1.2482308e-10
000100 1f 5c d1 af 9e 2f 5d b0 2b 30 ee aa 46 0c 70 ae
       -3.8082335e-10 -8.0467e-10 -4.2310716e-13 -5.4580583e-11
000110 34 9d 3e b1 5c e4 86 aa fc 74 b8 ad 64 bb 64 b0
       -2.7737999e-09 -2.3961638e-13 -2.097033e-11 -8.3212215e-10
000120 24 a9 bd 3a a9 85 3f 3b cf 15 2e 3b da 92 c8 3b
       0.0014469963 0.0029223955 0.0026563292 0.0061210217
000130 b7 f4 35 3c 90 33 df 3c 84 b4 d1 3c 09 29 67 3d
       0.011105708 0.027246267 0.025598772 0.05643562
000140 85 88 ab 3d dd 5a 15 3d 2a bf b9 3c 50 2e 83 bd
       0.083756484 0.036463607 0.022674162 -0.06405318
000150 3d af 7b 3c ee 62 3f bc f1 01 79 bc 4d 1b 88 bc
       0.015361604 -0.0116813015 -0.015198217 -0.01661458
000160 7d 72 c6 bc 3f cf 2d bd 08 84 92 3d 72 bd 62 3d
       -0.024224514 -0.042433973 0.07154089 0.05535645
000170 b9 4e dc 3c 03 60 b4 3d e9 d5 b2 3d b6 a8 50 3c
       0.026893007 0.08807375 0.087322064 0.012735536
000180 c5 b2 d8 3d aa 92 d0 3d 0d 05 f7 3c f8 5d 17 bb
       0.105809726 0.10184224 0.030153776 -0.0023096781
000190 11 e6 c6 3b d1 59 9b 3c 95 c7 cf 3a 08 47 14 3c
       0.0060699065 0.018963726 0.0015852327 0.009050138
0001a0 01 2c ea 3c d0 bc 5f bc 48 ab b6 39 78 c5 73 3c
       0.028585436 -0.013655856 0.0003484136 0.014878623
0001b0 03 b2 35 3b f0 5f 6f bd a7 f4 22 be ef ed bb 3c
       0.0027724511 -0.058441103 -0.1591364 0.022940604
0001c0 ce 39 10 bb 80 b8 89 bd 13 e5 de 3c 38 b6 89 3c
       -0.002200711 -0.06724644 0.02720884 0.016810521
0001d0 3f 9b 53 bd f6 9c 1b 3e 5b 3a 00 3d 56 77 0c 3d
       -0.051661726 0.15196595 0.031305652 0.034293495
0001e0 ba d4 c2 3c ac 7c 27 3c 08 e0 fd 3b f5 49 2b 3c
       0.023783077 0.010222595 0.007747654 0.010454644
0001f0 8f e3 b2 3b 75 94 d6 3b c6 f0 85 ba c5 88 41 bc
       0.005459256 0.006548459 -0.0010218851 -0.011812394
000200 39 ee 54 3d 9c 73 16 bc 80 01 13 bd 9f 05 2a 3c
       0.051985 -0.009182837 -0.035890102 0.010377317
000210 73 40 b0 bc 09 ed e3 bc 9b b0 16 bc c5 9d f4 3d
       -0.021515107 -0.027822988 -0.009197379 0.11944155
000220 ac 76 19 3e af 80 86 3d bd 11 1a 3d e3 9a 3e 3d
       0.14986676 0.06567513 0.037614573 0.04653443
000230 7c 11 64 3c 9a e1 0b 3d 0b 33 93 3d 7e 95 57 3d
       0.013920184 0.034150697 0.0718747 0.0526328

exp_avg_sq f4 [16, 1, 3, 3]
000000 04 14 32 3d 32 92 47 3d 77 3f 93 3d 34 6f bc 3d
       0.04347612 0.048723407 0.07189839 0.09200898
000010 10 52 b8 3d 98 8a 1c 3e c1 af d8 3d bc e6 f0 3d
       0.09000027 0.15287244 0.105803974 0.11762759
000020 a1 57 0d 3e 7b 19 33 3d 52 23 ab 3c a7 39 e3 3c
       0.13802959 0.043725472 0.020890865 0.027737452
000030 d2 d3 ff 3d 71 98 65 3d d2 c0 84 3d 29 18 bd 3d
       0.124915734 0.056053583 0.0648209 0.09233124
000040 2d 77 cf 3d 02 63 ad 3c f7 6d 12 3e ac ca f3 3d
       0.10130153 0.021165375 0.14299761 0.11903891
000050 33 9c 39 3e a9 5e d2 3d 0d dc 33 3e c7 c6 f9 3d
       0.18125992 0.10271961 0.17564411 0.12196117
000060 fe 32 a3 3d 7f dd 5a 3d 46 86 f5 3d ab 9a 8c 3d
       0.0796871 0.05343389 0.11988501 0.06865438
000070 f3 13 cb 3d 51 bf de 3d fa 3d 14 3d 24 bb 76 3d
       0.099159144 0.108763345 0.036191918 0.060237065
000080 ef 6b 90 3d 18 81 ba 3c d6 7c 4b 3d 85 9c 21 3d
       0.07051837 0.022766635 0.0496796 0.03945591
000090 e1 95 b5 3d af ff 9a 3c b1 7a f0 39 e8 cc cc 3d
       0.08866478 0.018920748 0.0004586778 0.1000002
0000a0 95 94 ee 3c ca 9f 4e 3b 41 7c 09 3e 3c e9 7d 3d
       0.029123584 0.0031528347 0.13426305 0.061990008
0000b0 2d 7b 73 3c ad 2c 08 3f d2 fa 89 3e 2c b1 20 3e
       0.01486091 0.5319317 0.26949173 0.15692586
0000c0 dc fc af 3d c2 a2 f1 3c 9b 8d 44 3c 14 ca 59 3d
       0.08593151 0.029496554 0.011996652 0.053171232
0000d0 aa 4f 33 3c cc 83 ae 3c c1 50 e8 3c 56 6d b4 39
       0.010944286 0.02130308 0.028358819 0.00034413737
0000e0 b0 65 25 39 da b0 14 3d d9 74 d5 3a 48 82 5d 3a
       0.00015773508 0.03630147 0.0016285434 0.00084498944
0000f0 28 dd bd 3d 82 35 d5 3c ac 41 35 3c 5b a0 46 31
       0.09270698 0.026026491 0.011063021 2.8903944e-09
000100 86 8e 61 31 1d f1 7d 31 59 e6 dd 30 43 1c 29 31
       3.2822824e-09 3.6953403e-09 1.6145335e-09 2.4608802e-09
000110 4d 33 a0 31 6c 14 d2 30 0a a7 15 31 8b e7 7e 31
       4.662445e-09 1.5285315e-09 2.1777304e-09 3.7093482e-09
000120 32 32 c1 3b ac 9e 7c 39 08 1b a0 39 a8 21 a5 3c
       0.0058958763 0.00024091703 0.00030537718 0.02015765
000130 29 55 71 3b 1a 39 1b 3c c8 76 f7 3d c5 84 5f 3d
       0.003682444 0.009474063 0.120832026 0.05456998
000140 3e 4f 57 3d 84 c7 4c 3d 15 8d a8 3c 9f 1b 8a 3d
       0.052565806 0.04999496 0.020575086 0.067435496
000150 4e c8 06 3d e5 6c c4 3c a1 85 79 3d 89 a8 5d 3d
       0.03290587 0.023977706 0.060918454 0.054115806
000160 fd 4c 29 3e ca de 50 3d 8c 4b 25 3d ec 19 74 3d
       0.16533275 0.05099372 0.04035525 0.059595034
000170 44 63 1f 3e 3c 17 92 3d cc e4 d3 3d 4b ae a2 3d
       0.1556521 0.07133338 0.10346374 0.079434
000180 c8 98 e8 3d bb d9 dc 3d a0 3f b7 3d 7c da f0 39
       0.11357266 0.10783716 0.089476824 0.0004593915
000190 ad 3a 10 3c bb e0 30 3d a1 53 28 3a 0c e3 92 3c
       0.008803052 0.04318307 0.0006421153 0.01793053
0001a0 3b ec 3b 3d 6d fc 04 3b 07 a7 9f 3c da b0 ba 3d
       0.045879584 0.002029206 0.019488825 0.09115763
0001b0 df dd 03 3e 0b ed bc 3d da 3a 12 3e f8 b9 1a 3e
       0.12877606 0.092249 0.14280263 0.15110004
0001c0 a1 a4 12 3e f4 43 91 3d 36 2d df 3d 42 54 6a 3d
       0.14320613 0.07093039 0.10897295 0.05720926
0001d0 e9 93 35 3d de 9f f5 3d b8 b3 97 3d 02 6a 23 3d
       0.04433051 0.11993383 0.074073255 0.03989602
0001e0 f9 0a 46 3d 03 74 ef 3c 7d b4 a1 3b a2 d2 08 3b
       0.048350308 0.029230123 0.004934846 0.00208775
0001f0 06 21 3e 3a e7 83 f7 39 fc 9c 25 3d 5d f7 b0 3d
       0.00072528457 0.00047209786 0.040432915 0.08640931
000200 3d 28 ff 3d 48 22 41 3d 72 80 f3 3d bf 09 0d 3e
       0.12458847 0.047151834 0.118897334 0.13773249
000210 4a 83 90 3d 8b 57 db 3d b1 ee 2e 3e b4 6a b2 3d
       0.070562914 0.10710057 0.17083241 0.08711758
000220 5c 3b e1 3d a1 11 5b 3d 1f f1 c7 3c 14 1a 65 3d
       0.1099765 0.05348361 0.024406968 0.055933073
000230 9c 8d 74 3d 21 14 ec 3c b0 7f 98 3d 7a fe d1 3d
       0.05970536 0.028818192 0.074462295 0.10253616

exp_avg f4 [16]
000000 10 ff ff 3a fe 5f 18 3b 39 16 f4 3a b1 35 73 3a
       0.0019530971 0.0023250575 0.0018622346 0.0009277715
000010 24 56 b6 39 fd d6 a0 bb 7f b1 81 b9 6f 38 bc 9b
       0.00034777925 -0.004908441 -0.00024737042 -3.113846e-22
000020 7b 9c 0c b9 8d eb 84 3a bf c5 81 3a 64 f2 9c b8
       -0.00013409734 0.0010141 0.0009900852 -7.4838084e-05
000030 c4 be 16 3b 52 a9 1f b8 89 bf 5d ba e9 0f a9 3a
       0.0023001889 -3.8066246e-05 -0.0008459022 0.0012898418

exp_avg_sq f4 [16]
000000 89 c7 38 38 47 43 22 39 4e 69 84 38 53 01 8d 37
       4.405485e-05 0.00015474587 6.313865e-05 1.6809126e-05
000010 2f fd d3 36 40 30 86 3a ce 0b e3 36 79 d1 00 2d
       6.3177645e-06 0.0010237768 6.7665014e-06 7.32247e-12
000020 fd 15 43 37 64 b4 f0 38 5a d7 06 38 c0 e1 9a 37
       1.1628025e-05 0.00011477692 3.214865e-05 1.8463354e-05
000030 57 bc 5f 38 4e cc 89 37 6e f8 62 38 1e a9 30 38
       5.334275e-05 1.642681e-05 5.4113967e-05 4.2119173e-05

exp_avg f4 [32, 16, 3, 3]
000000 81 3e 45 bc c8 6b 9a 3a 32 77 aa bb 10 1f c5 ba
       -0.012038828 0.0011781389 -0.0052021975 -0.0015039165
000010 00 26 eb 3a 10 64 09 bb 06 cb 93 bc d6 b1 04 3c
       0.0017940402 -0.0020964183 -0.018041145 0.00809904
000020 eb 93 a0 3b f4 46 08 3b 8a b5 af ba 0f af 3d bb
       0.0049004457 0.0020794244 -0.0013405543 -0.0028943454
000030 36 c0 71 bb 70 6e 9b b9 05 b9 62 3b 28 45 10 bb
       -0.0036888248 -0.00029646186 0.0034595144 -0.0022013877
000040 37 b1 4a bb 80 20 7e ba 36 9a 22 bb b4 79 fe ba
       -0.0030928382 -0.0009694174 -0.0024811155 -0.0019414932
000050 7c fd ab bb 5c c6 49 bb 43 92 8b bb 96 17 c3 3a
       -0.0052487236 -0.0030788397 -0.004259379 0.0014884348
000060 80 73 08 bb 06 77 cb 39 03 ea 16 ba c1 62 cf ba
       -0.0020820796 0.00038807857 -0.00057569164 -0.0015822278
000070 39 97 19 bb 55 84 53 bc 40 07 96 bb c4 08 ff ba
       -0.0023436083 -0.012909968 -0.004578501 -0.0019457568
000080 22 a7 4b bb 68 0c 9a bb 5e 0d f4 ba ff 84 28 bb
       -0.003107496 -0.004701186 -0.0018619706 -0.0025714037
000090 fe e0 65 bb 1a e1 cf bb dd a7 25 3b a1 ad 20 3c
       -0.0035076733 -0.006343973 0.0025277056 0.009807021
0000a0 15 aa 54 ba e5 34 30 3b 96 74 ac bc df e0 19 bb
       -0.00081125024 0.0026886996 -0.021051686 -0.002347998
0000b0 d5 57 86 bb 4e 90 ba 39 db 7b 35 ba 51 ac 63 ba
       -0.004099826 0.000355842 -0.0006923058 -0.000868504
0000c0 66 03 25 3a e0 6b e1 b8 63 4b 46 38 54 c6 b3 38
       0.0006294757 -0.00010748929 4.7277088e-05 8.5723266e-05
0000d0 a6 f5 8d b8 9a 1c 72 39 41 37 02 bc 0b 56 52 ba
       -6.7691595e-05 0.00023089573 -0.007947744 -0.00080236857
0000e0 a8 c0 8e 3a 19 7d ed 39 ef 67 c0 ba 86 48 bb b9
       0.0010891156 0.00045297368 -0.0014679412 -0.00035721454
0000f0 6c b9 1c bc 3d bc db ba 57 13 d1 3a 3c 76 15 18
       -0.009565692 -0.0016764473 0.0015951198 1.9317492e-24
000100 99 5c 38 17 62 4a 53 99 fc 0d 25 99 02 c4 8e 98
       5.957048e-25 -1.0923466e-23 -8.533124e-24 -3.6904057e-24
000110 b8 9d 4d 19 6a 0c b8 99 36 e7 6c 19 65 76 2f 18
       1.0630103e-23 -1.9030168e-23 1.2247607e-23 2.2677994e-24
000120 54 0a d4 ba 35 29 83 3b d4 d6 d0 bb 15 d5 73 3a
       -0.0016177394 0.004002715 -0.0063732658 0.0009301466
000130 e3 7c 4b ba fe d6 3c bb 72 b6 47 bb dc 7a d9 ba
       -0.0007762445 -0.0028814669 -0.0030473736 -0.0016592401
000140 f6 c7 0b bc 49 91 e1 39 61 9a 89 bb 86 5c 0c 3b
       -0.008531561 0.0004302359 -0.0041993116 0.0021417453
000150 49 52 0f bc 66 53 36 bb 8d 53 18 3c c0 2a 6f 3a
       -0.008747646 -0.0027820705 0.009297264 0.0009123497
000160 74 b7 76 3a 00 95 29 3b b5 0d bf bb 86 8d 3a bb
       0.0009411492 0.0025876164 -0.0058304914 -0.0028465702
000170 84 fb 6b 3b fa 33 24 ba 2b cd 2a 3b d7 50 a5 3b
       0.003600807 -0.00062638486 0.002606223 0.0050450373
000180 df 94 68 bc 9c 39 3f ba 32 0d 81 3b f2 8a 17 bb
       -0.01419565 -0.0007294656 0.0039383406 -0.002312359
000190 f5 eb 2f 39 4f d7 d1 3a 80 c2 04 ba c8 af 5c 3b
       0.00016777201 0.0016009602 -0.0005064383 0.003367411
0001a0 20 12 98 3a b4 1a ac bb 17 60 1e 3a b0 6b a6 bb
       0.0011602081 -0.0052522067 0.000604154 -0.0050787553
0001b0 31 51 04 3b 94 85 64 bb 37 fd 0d bb f1 65 a4 bb
       0.0020189995 -0.0034869658 -0.002166582 -0.005017035
0001c0 52 0c 8c bb a4 da 22 3b 59 6b bf b9 10 09 82 3a
       -0.0042739296 0.0024849558 -0.0003651034 0.0009920914
0001d0 47 ac 9c 3a 3b a2 dc ba e9 15 45 bb c3 f7 9d ba
       0.0011953198 -0.0016833016 -0.0030072874 -0.0012051988
0001e0 c4 da b2 bc 3c ab 7a bb 37 19 a4 39 1b 6d b4 ba
       -0.021832831 -0.0038249036 0.00031299304 -0.0013765426
0001f0 ea b4 bb 3a cf 32 ef 3a 2c 04 81 ba 13 81 da b9
       0.0014320884 0.0018249395 -0.0009843162 -0.00041676368
000200 47 6b a6 3b 01 b9 ed ba 30 07 f2 3a 73 87 35 3b
       0.0050787064 -0.00181368 0.0018465277 0.0027699142
000210 4e 3b 62 3b 9d 73 04 ba 94 ea 66 bb c2 65 7a bb
       0.0034520212 -0.0005052628 -0.0035235034 -0.0038207625
000220 02 02 82 3b 35 84 08 39 39 59 bf bb 31 bd 90 ba
       0.0039675245 0.00013019222 -0.0058394936 -0.0011042712
000230 ef b1 62 bb 7c a6 0b 3a 43 24 11 3b ac bb 1a 3b
       -0.003459092 0.00053272373 0.0022146858 0.0023610396
000240 c9 c6 77 bc a6 13 e6 bc b0 76 59 bc 5b 37 0a bc
       -0.015123078 -0.028085541 -0.013272926 -0.008436049
000250 b8 ff 8a bb 1e 3c c4 3a e2 8d 6c bc 53 8a c3 bc
       -0.00424191 0.001497153 -0.014438124 -0.023869669
000260 e7 d6 38 bb d8 bf 5b 3b d6 62 2b ba 29 51 90 bb
       -0.0028204264 0.0033531096 -0.000653786 -0.0044042063
000270 c2 1a d2 bb bb 7d d2 3a 50 72 16 3a af 8c ce bb
       -0.006411881 0.0016059199 0.000573908 -0.006303392
000280 39 09 0f bb a7 cb 9a 39 82 20 f8 3b 6e 13 44 3b
       -0.0021825565 0.00029524902 0.0075722346 0.0029918808
000290 37 e8 a8 bb f2 5e 0a bc c9 5e 21 bd 6b d7 80 bb
       -0.0051546353 -0.008445488 -0.039397035 -0.00393193
0002a0 77 c0 86 bc f5 e6 d7 bb 25 52 f4 b9 e0 b3 a6 3a
       -0.016449196 -0.0065888115 -0.0004660051 0.0012718402
0002b0 3e 49 02 bc a4 cd be bb be 1a 95 bc 6a 02 02 bd
       -0.007952033 -0.005822854 -0.018201228 -0.031740583
0002c0 83 23 70 bc 86 7a e3 ba 87 8f 00 bc 26 99 f9 ba
       -0.014656904 -0.001735524 -0.00784672 -0.0019042834
0002d0 3a ff a1 ba 67 21 2d ba db 52 36 bd 33 b1 13 bb
       -0.0012359389 -0.00066044036 -0.04451261 -0.002253604
0002e0 f4 e3 ff b9 d2 07 ba ba 7d fb a6 bb cc 70 dd ba
       -0.00048807228 -0.0014193004 -0.0050958977 -0.0016894578
0002f0 4c 4b 72 39 7c 0a 14 3a ea 1c 5f 3a d2 90 2d 3a
       0.00023106969 0.0005647314 0.00085110834 0.0006621006
000300 00 b9 73 39 e9 2b b8 b7 a4 03 c1 38 b4 bf f1 b9
       0.00023243204 -2.1954957e-05 9.203635e-05 -0.00046109932
000310 8f 2b f7 b9 df 2c 64 ba e9 2e 0b ba 9e 9d f4 38
       -0.00047143965 -0.0008704196 -0.00053094194 0.00011664185
000320 81 da ea bb fc 36 e5 bb 5a 2b e0 b9 45 16 d1 b9
       -0.007167161 -0.00699508 -0.0004275691 -0.00039880179
000330 72 83 c2 ba b5 0b 4b ba f6 66 de ba 8f 6b 98 18
       -0.0014840199 -0.000774558 -0.0016967941 3.9399686e-24
000340 fe e3 a1 98 28 a6 25 18 94 9f 1a 99 25 39 e6 18
       -4.1847738e-24 2.1409638e-24 -7.99384e-24 5.9511308e-24
000350 fd 07 05 18 6e 49 81 18 13 73 cc 19 31 2f 13 9a
       1.719388e-24 3.3419863e-24 2.1139584e-23 -3.043701e-23
000360 a5 71 b2 b8 1e e9 bf 39 eb cc 97 3a 75 ff 67 bb
       -8.508869e-05 0.00036604045 0.0011581456 -0.0035400067
000370 13 ba ae 39 a2 68 49 39 1b 1a 11 bc 55 b6 99 37
       0.00033326502 0.00019207833 -0.008856322 1.8323926e-05
000380 64 1a 59 bb 1a de f7 3b 4d 40 90 ba 7c 0d 9c bb
       -0.0033127302 0.0075643184 -0.0011005491 -0.0047623497
000390 b6 f6 d1 bb 98 aa 4b bb b1 d8 1c ba b5 b1 bc bc
       -0.006407584 -0.0031077024 -0.0005983217 -0.023033956
0003a0 c8 8e 45 3b 22 ce 18 b9 2c 93 3b bc 4e f0 b2 bb
       0.0030144919 -0.0001457264 -0.011448663 -0.0054607755
0003b0 28 7f 6e bc 5a 1a 63 bc fe 88 6f 39 c8 eb 5c b9
       -0.014556684 -0.013861263 0.0002284385 -0.0002106867
0003c0 1c f1 59 bc 23 14 38 bb c7 cf 62 bb 65 06 4f bb
       -0.013302114 -0.0028088174 -0.0034608708 -0.0031589505
0003d0 fd a5 42 bd 3a 29 85 b9 a7 8c 19 bd 5d 88 a6 bb
       -0.04752158 -0.00025398453 -0.037487652 -0.0050821737
0003e0 c6 24 7e b9 5a cb 1a b9 48 f6 db bc 91 e9 a6 3a
       -0.00024237027 -0.00014762339 -0.026850834 0.0012734403
0003f0 1d 5a 81 bb 2d ac 4b 3b e3 97 4c 3b d8 fe 9b bc
       -0.00394751 0.0031077967 0.0031218461 -0.019042417

exp_avg_sq f4 [32, 16, 3, 3]
000000 0e 5c a4 3a 9b 90 6f 3a e6 9c e2 3a 56 45 fc 38
       0.0012539641 0.00091386744 0.0017289191 0.00012029211
000010 5f c3 c6 38 8d 65 34 3a e2 b5 e6 3a 4f 52 6b 3b
       9.4777664e-05 0.00068815873 0.0017601813 0.0035907214
000020 22 7d 3f 3b 0c ed 54 39 2b 86 3d 39 ec 6b 01 3a
       0.0029218872 0.00020306202 0.00018074426 0.0004937041
000030 34 ae 1c 39 d3 a8 ad 38 53 f2 61 39 6e 90 42 3a
       0.00014942215 8.280729e-05 0.00021547945 0.00074220344
000040 2a a2 cb 39 d4 7e 11 3a 27 2e 2e 3a ac 1f 25 3a
       0.0003884 0.000555021 0.00066444505 0.000629897
000050 6f d5 cf 3b 84 79 32 3b 89 20 c7 3a 73 56 6f 3b
       0.006342582 0.0027233073 0.0015192191 0.0036520034
000060 c6 24 8a 39 0e ea 2f 39 d1 c0 85 39 6c d4 de 39
       0.0002634881 0.00016776493 0.00025511396 0.00042501406
000070 c4 d0 1e 3a ef 14 49 3b f6 2c d4 3a 1b 68 ab 3a
       0.000605833 0.0030682643 0.0016187716 0.001307729
000080 59 fc 39 3b ba f0 dd 39 a5 b0 4c 39 bf 6c a0 39
       0.002837917 0.0004233176 0.00019520761 0.000305986
000090 2f ea d4 39 50 e0 b1 39 bb dd c4 39 29 43 e7 39
       0.0004061027 0.00033927197 0.00037549235 0.00044109792
0000a0 30 2c d9 39 d1 2f 30 39 4d ad 77 3b d9 f3 b9 3a
       0.00041422388 0.00016802481 0.0037792504 0.0014187052
0000b0 99 3c 10 3b 42 7e 44 37 ee a8 3a 37 e4 9d 5f 37
       0.0022008775 1.1711907e-05 1.1125796e-05 1.3328598e-05
0000c0 76 1c d0 37 e4 54 e4 37 d5 01 01 38 4c 9c b6 37
       2.4808785e-05 2.7219248e-05 3.0757703e-05 2.1768872e-05
0000d0 31 5b 82 37 97 3f 2e 37 53 5d 0b 39 2e 0a 66 38
       1.5539672e-05 1.0386014e-05 0.00013290839 5.4845754e-05
0000e0 ad b1 24 39 eb ef 9b 38 b7 d0 3d 39 61 64 34 39
       0.00015706448 7.435664e-05 0.00018102197 0.00017203532
0000f0 41 94 f8 3a 94 67 dc 3a c0 a4 13 3b 3b fe e3 2c
       0.0018965082 0.0016815537 0.0022528619 6.4799533e-12
000100 b6 ce 46 2b a4 4b 86 2c 95 25 be 2d 61 0e 50 2d
       7.06306e-13 3.816907e-12 2.1617189e-11 1.1826624e-11
000110 02 c0 fb 2b 69 4c 06 2c 7c 27 ba 2c ba ec 10 2d
       1.7887916e-12 1.9084961e-12 5.2908216e-12 8.238016e-12
000120 7f 3d d1 39 ec ae 74 39 dd 78 5d 3a 57 1a 97 37
       0.00039909405 0.00023334817 0.0008448491 1.8012868e-05
000130 a5 76 68 38 fc 9c 70 39 c7 09 25 3b 87 c0 1a 3b
       5.5423607e-05 0.00022946665 0.002518283 0.002361329
000140 16 00 47 3b 67 13 19 39 49 1c f7 39 19 d7 b2 3a
       0.0030365041 0.00014598445 0.00047132585 0.0013644426
000150 9d 39 93 39 7c d3 3b 3a a9 3a fb 3b 36 b3 8a 3a
       0.0002808095 0.00071649975 0.007666905 0.0010581973
000160 f7 5e ed 39 b9 e5 51 3b 5d 88 8c 3a 36 b2 82 3a
       0.00045274917 0.0032027795 0.0010721792 0.0009971324
000170 15 19 e8 3a cc 5c 40 39 e3 62 85 39 87 ec 60 3b
       0.001770767 0.00018345116 0.00025441413 0.0034320669
000180 1a ce 5e 3b 9d f8 45 3b 35 40 6e 3b 94 d2 d4 39
       0.0033997358 0.0030208 0.0036354188 0.00040592684
000190 dc 9e 8f 3a 36 ae 36 3c df c2 ec 38 e4 36 1c 39
       0.0010957378 0.011149934 0.000112896545 0.00014897768
0001a0 56 f9 3f 39 72 8c 75 3b e4 bc 2a 3b 91 1b 4f 3b
       0.00018308064 0.0037467745 0.002605253 0.0031602124
0001b0 6e 3b 5a 39 6c 2d 03 3a 28 6a b0 3a e8 a0 47 3a
       0.0002081224 0.0005004022 0.0013459371 0.00076152245
0001c0 ab 18 bb 3a 1e ab 1f 3c c9 c5 b9 39 31 df 37 39
       0.0014274319 0.009745387 0.0003543331 0.00017535385
0001d0 8e 32 42 3b 23 2c cc 38 c8 d0 a1 39 af b4 ef 38
       0.0029632184 9.735699e-05 0.00030863867 0.00011430063
0001e0 e6 65 05 3b 4e 57 a7 3a 22 8b ad 3a 76 84 aa 39
       0.0020354926 0.0012767108 0.0013240317 0.00032523618
0001f0 22 51 65 39 5e 04 9d 38 86 f7 8a 3a ee 98 3c 3a
       0.00021869366 7.487157e-05 0.0010602332 0.0007194419
000200 7e 09 d7 3b 09 1f 18 3a 53 73 ed 39 cc 8a 17 3b
       0.006562411 0.00058029644 0.00045290086 0.00231235
000210 1f 4d ee 3a 70 2f 0e 3b d8 8e f3 3a 36 0e 28 3a
       0.0018180943 0.0021695755 0.0018582 0.0006410809
000220 87 a5 84 39 fc 00 3e 3b 2f 17 c1 39 8f f4 14 3a
       0.0002530033 0.0028992286 0.00036829102 0.0005682194
000230 d7 4c 40 3b 40 51 e6 3a df 78 33 3b 8b 30 b2 3a
       0.0029342675 0.0017571822 0.0027385277 0.0013594789
000240 53 8d cd 3a 81 42 8f 3b 50 82 1a 3b ef 8b d4 3a
       0.0015682377 0.0043719416 0.0023576207 0.001621602
000250 6f 30 f0 39 d6 86 f5 39 48 d7 de 3a ab 25 ee 3a
       0.00045812453 0.00046830502 0.0017001415 0.0018169185
000260 dc 3c 13 3b 6a 1f 8e 3a 03 68 4d 3b 0d a9 bd 39
       0.0022466695 0.0010843102 0.0031342513 0.00036174842
000270 ec 10 2e 3a d0 52 05 39 49 2a 8b 3b be d9 c4 3a
       0.0006640095 0.00012714718 0.004246984 0.0015018506
000280 60 fa b3 39 e4 a9 b5 3c cc f7 99 3b 0a 86 06 3b
       0.00034328084 0.022175737 0.004698729 0.002052667
000290 c9 60 6e 3a 46 2b 98 3a 6d 1a b9 3b 48 2f ee 3a
       0.00090934016 0.0011609576 0.005648902 0.001817205
0002a0 ac 40 3f 3a 13 fd 17 3a 28 c7 d9 38 f5 bf 56 3b
       0.00072957086 0.0005797904 0.00010384462 0.0032768224
0002b0 ec 7e 33 3b b0 79 92 3a eb 3b 8c 3a fb ef 60 3b
       0.0027388884 0.0011175182 0.0010699009 0.0034322727
0002c0 e6 21 97 3a 76 5f 06 3a 2e a6 20 3b 95 fa 45 3a
       0.0011530488 0.0005125919 0.0024513113 0.0007552293
0002d0 88 5c b9 39 f7 9f 44 3a af 52 27 3a d6 7c 94 3a
       0.0003535489 0.0007500643 0.0006382865 0.0011328708
0002e0 07 e5 16 38 f5 31 50 3a aa 27 d8 3a 9d 17 b8 38
       3.5976085e-05 0.00079420145 0.0016491313 8.778202e-05
0002f0 0c 6f b3 3a ea 0c 10 38 b1 d7 d6 37 56 0e 98 37
       0.0013689711 3.4344303e-05 2.5611227e-05 1.8126488e-05
000300 46 ff 97 37 47 55 bc 37 15 24 f4 37 dc 3b af 37
       1.8119474e-05 2.2451057e-05 2.9103869e-05 2.08895e-05
000310 2c a9 af 37 b4 19 9e 37 1d 2a 75 39 f8 92 3e 38
       2.0940402e-05 1.8847037e-05 0.00023380709 4.5436405e-05
000320 48 a6 cc 38 61 e0 66 3a a3 b2 75 39 fd bc 79 3a
       9.75845e-05 0.0008807239 0.00023431568 0.00095267576
000330 02 e9 b0 3a 17 d6 f3 38 26 21 ce 3a 1e 6f 17 2c
       0.0013497176 0.0001162702 0.0015726432 2.1520073e-12
000340 36 35 99 2c 84 4e ae 2c aa 36 ab 2c 20 3e 4f 2d
       4.354429e-12 4.9540944e-12 4.8661812e-12 1.1780382e-11
000350 5c b2 b6 2b f2 d4 9b 2b ee ce 07 2b 70 7e c1 2c
       1.2981382e-12 1.1072517e-12 4.824881e-13 5.4994273e-12
000360 28 e2 fc 38 da e9 de 38 7e f3 30 3b 13 74 b7 3a
       0.00012058421 0.00010629343 0.0027000601 0.0013996385
000370 24 a6 da 38 46 5b db 38 87 19 8f 39 b1 89 8a 3a
       0.00010425996 0.00010459735 0.00027294105 0.00105696
000380 0b b8 eb 3a 4c 99 47 3c 5d 27 64 39 9c d3 a0 39
       0.0017983926 0.012182545 0.00021758438 0.0003067524
000390 76 5c 83 3b d2 56 93 39 4b fc d6 39 fc 04 5c 3a
       0.004008825 0.0002810271 0.00041005234 0.0008393077
0003a0 18 bf 58 39 23 52 1c 3a c8 2f b1 3b c9 35 92 3a
       0.00020670553 0.0005963167 0.0054073073 0.0011154945
0003b0 0b b8 8d 3a 11 9b 14 3b 21 dc 00 3a 6b 41 9d 39
       0.0010812295 0.0022675435 0.0004915614 0.00029994114
0003c0 d1 1b ff 3a 64 de 91 3a 59 bc 4d 3b 4b 13 b2 3b
       0.0019463246 0.00111289 0.0031392782 0.005434429
0003d0 82 b1 ac 3a e6 da 4e 37 b2 05 4b 3b 80 7f bc 3a
       0.001317546 1.2329523e-05 0.0030978736 0.001438126
0003e0 8f 11 96 37 e1 2f a0 39 b8 ad 00 3c 80 33 92 3a
       1.788957e-05 0.0003055325 0.007853918 0.0011154264
0003f0 77 18 39 3c 5d e8 3f 3a d7 06 83 3a 01 c7 8b 3b
       0.011297337 0.00073206966 0.0009996545 0.0042656665
